continuouscontrol/checkpoint_actor_final.pth (torch_old, 541411 bytes, 6 tensors)

fc1.weight f4 [400, 33]
0	0xbc10180e	-0.008794798
1	0x3ba69059	0.0050831256
2	0x3d1e1261	0.038591746
3	0x3da896fe	0.082319245
4	0x3c8d91e3	0.017281478
5	0xbec0de96	-0.3766982
6	0xbe253cdc	-0.16136497
7	0x3e2da7ea	0.16958585
8	0xbe08afb6	-0.13348278
9	0x3d93ae47	0.07210975
10	0xbe0878b3	-0.13327293
11	0x3d79f99c	0.06102906
12	0xbaa0ae31	-0.0012258944
13	0xbe39dfbf	-0.18151759
14	0xbdee5a60	-0.116383314
15	0x3deecff0	0.11660755
16	0xbe6c1ade	-0.23057124
17	0xbeb35f66	-0.3503372
18	0x3bcdfdee	0.0062863743
19	0xbf0b895b	-0.5450646
20	0xbcf6c4da	-0.030123163
21	0x3e30aa1e	0.17252395
22	0x3be458a6	0.0069685755
23	0xbe13ec92	-0.14445713
24	0xbd993bb2	-0.07482089
25	0xbd7f4b23	-0.062327515
26	0x3e301141	0.17194082
27	0xbd7005e0	-0.058599353
28	0x3d719da5	0.058988232
29	0xbcff6efa	-0.031180847
30	0x3d82773a	0.06370397
31	0xbd2f299d	-0.042764295
32	0xbf1ab95b	-0.6043908
33	0xbe840738	-0.25786757
34	0xbd07bfb0	-0.03314179
35	0x3d81ae0d	0.06332026
36	0xbe9cfc1e	-0.306611
37	0x3eebead1	0.46077588
38	0xbe592dd0	-0.21208882
39	0xbd9ea1b5	-0.07745687
40	0x3bb273e1	0.0054459427
41	0xbda91704	-0.08256343
42	0x3d74c958	0.05976233
43	0xbd645dba	-0.055753447
44	0xbc8cad76	-0.017172556
45	0xbd05dc23	-0.03268064
46	0xbc7d84ab	-0.015473525
47	0x3cbdca65	0.023167798
48	0xbab68468	-0.0013924958
49	0x3edf3dbb	0.43601784
50	0xbf30e320	-0.69096565
51	0xbf13f168	-0.5779023
52	0xbe783c05	-0.24241646
53	0x3c6e83b8	0.014557771
54	0x3d6099d7	0.054834213
55	0x3d829bd0	0.06377375
56	0xbd4c2c0b	-0.04984669
57	0x3ca053b7	0.019571168
58	0x3ab4fdf7	0.0013808598
59	0xbcf6ebb8	-0.030141696
60	0x3d64f6bc	0.055899367
61	0x3cab1274	0.020882823
62	0xbadb00a0	-0.001670856
63	0xbe1ca28d	-0.15296383
64	0xbd18a1c0	-0.03726363
65	0x3f6d1596	0.9261106
66	0x3dcf822a	0.10132249
67	0x3d2c9a76	0.042139493
68	0xbe043a65	-0.12912901
69	0x3c6d3de8	0.014480092
70	0xbe7f0a32	-0.24906233
71	0xbe9f0c60	-0.3106413
72	0x3e2ab37e	0.16670033
73	0xbd82885c	-0.06373665
74	0x3d6847a3	0.056708943
75	0x3cfb732e	0.03069457
76	0x3dbe9be0	0.093070745
77	0xbcdaa493	-0.026689803
78	0x3a028868	0.00049794326
79	0x3d91b397	0.07114332
80	0xbdcf0b37	-0.10109561
81	0x3db2518f	0.08706962
82	0x3efc3f69	0.49267128
83	0x3ea7bd83	0.32761773
84	0x3d7bbaf8	0.061457604
85	0xbd891ef5	-0.06695358
86	0x3c5bcca3	0.013415488
87	0xbd96327e	-0.07333849
88	0x3c9f3a33	0.019436931
89	0x3d933c65	0.07189254
90	0x3e284a23	0.16434531
91	0x3cd895ef	0.026438681
92	0xbd67393f	-0.05645108
93	0xbbca4bfa	-0.006173608
94	0x3cf860fa	0.03031968
95	0xbc5edb00	-0.013602018
96	0x3d93a39e	0.07208942
97	0x3d20a8c5	0.03922345
98	0x3f0df8a9	0.5545755
99	0xbd898941	-0.06715632
100	0x3e5bfc91	0.21483065
101	0xbd83da73	-0.0643815
102	0xbf009a77	-0.50235695
103	0x3f171c4d	0.5902756
104	0xbe84f109	-0.25965145
105	0x3eae0ce3	0.33994207
106	0x3c4c3e9f	0.012466102
107	0x3d7700c8	0.06030348
108	0x3dd61379	0.10452933
109	0xbc6458e2	-0.013937207
110	0x3d3f70fa	0.046738602
111	0xbcc377d8	-0.023860857
112	0xbdfa39e2	-0.122180715
113	0xbddd03af	-0.10791718
114	0x3ae07c18	0.0017126827
115	0x3d40be15	0.047056276
116	0xbf2f2ffe	-0.68432605
117	0x3eb1c24f	0.34718558
118	0xbe8031bb	-0.2503794
119	0x3c9e882f	0.019352047
120	0xbd1f4c4d	-0.038891125
121	0xbcb2d441	-0.021829726
122	0xbd7552af	-0.059893306
123	0x3d6859c2	0.056726225
124	0xbd2ae7f0	-0.0417251
125	0x3da51a73	0.080616854
126	0x3d5a6531	0.05331916
127	0xbe03d296	-0.12873301
128	0xbc38cff4	-0.011280049
129	0xbd383d22	-0.044980176
130	0xbca932d3	-0.020654118
131	0xbec3fad3	-0.382773
132	0x3d04ec90	0.032452166
133	0x3bc4d620	0.006006971
134	0x3d60133a	0.054705836
135	0xbdd538e7	-0.10411244
136	0xbe771b29	-0.24131455
137	0xbe5995f0	-0.21248603
138	0x3e854161	0.26026443
139	0xbd0051b3	-0.031327914
140	0xbdc6cf8e	-0.09707557
141	0xbd81790d	-0.06321917
142	0xbd62a691	-0.05533463
143	0x3b200d59	0.0024422018
144	0x3d1aee08	0.03782466
145	0x3d105efa	0.035246827
146	0x3c09cba8	0.008410372
147	0xbc764f7a	-0.015033597
148	0xbdf6c363	-0.12048986
149	0x3dba2730	0.09089506
150	0x3c4aaa9a	0.012369776
151	0xbe3495b3	-0.1763523
152	0xbd252868	-0.040321738
153	0x3d91f0e0	0.071260214
154	0x3e0c7364	0.13715893
155	0xbccc396c	-0.024929725
156	0xbc479bcc	-0.012183141
157	0x3cf1f97b	0.029537907
158	0x3dee8723	0.11646869
159	0x3cb47354	0.022027649
160	0x3e383700	0.17989731
161	0xbc76a1b4	-0.0150532015
162	0xbda23508	-0.07920271
163	0x3b9622d0	0.0045817867
164	0x3ec3b0cc	0.38220823
165	0x3cc00837	0.023441417
166	0x3d62037a	0.055179097
167	0x3cc205e8	0.023684457
168	0x3e876dc1	0.26450923
169	0x3d84b1db	0.06479236
170	0x3efaf947	0.4901831
171	0x3ecda118	0.40161967
172	0xbd81caa6	-0.0633748
173	0x3e14fd5f	0.14549778
174	0x3e1202c1	0.14258863
175	0x3cad59ad	0.021160925
176	0x3c7e0715	0.015504618
177	0xbd53b908	-0.05169013
178	0xbc1c1343	-0.009526077
179	0xbd8ab74e	-0.06773244
180	0x3cc885a9	0.024477797
181	0x3ec6860d	0.38774148
182	0x3cf31039	0.029670822
183	0xbe579999	-0.21054687
184	0xbcb716f4	-0.022349812
185	0xbc68e576	-0.014214864
186	0x3c8d60b0	0.017258018
187	0xbdce0983	-0.10060408
188	0xbd036ae1	-0.03208435
189	0x3d63d690	0.055624545
190	0xbd243128	-0.04008594
191	0x3cb76363	0.022386258
192	0xbcc2c3c2	-0.023774985
193	0x3e373cfa	0.17894354
194	0xbcfa2a9d	-0.030537898
195	0xbd128fd3	-0.035781693
196	0xbd4a10f5	-0.049332578
197	0xbee4c1e9	-0.44679192
198	0xbe11a95d	-0.14224763
199	0x3e4c8a2e	0.19974586
200	0xbe1511c3	-0.14557557
201	0x3e037c23	0.12840323
202	0xbdf9b6b0	-0.12193048
203	0xbef654af	-0.48111483
204	0xbf45cc8f	-0.77265257
205	0xbcc9f7cf	-0.024654297
206	0x3d8bb1a0	0.06820989
207	0xbe9a7633	-0.30168304
208	0x3cb22916	0.021748107
209	0x3d706725	0.058692116
210	0xbdb18fa5	-0.08669976
211	0x3da60ccf	0.08107912
212	0xbe0c84f9	-0.137226
213	0x3e29dba6	0.16587695
214	0x3ebec86b	0.37262282
215	0x3f202aec	0.62565494
216	0x3d3f9582	0.04677344
217	0xbd0b3aed	-0.033991743
218	0xbd296d76	-0.041364156
219	0x3d8e9d99	0.06963653
220	0xbe005066	-0.1253067
221	0x3d43a257	0.04776224
222	0x3c94202e	0.01808175
223	0x3ddc139b	0.10745927
224	0xbd82e42d	-0.06391177
225	0x3ddb236b	0.10700115
226	0xbd438c53	-0.047741245
227	0x3d0af8fd	0.03392886
228	0xbe0b07b3	-0.13577156
229	0xb8238800	-3.898889e-05
230	0xbf21d82b	-0.6322047
231	0x3e4c6791	0.19961382
232	0x3db55a39	0.08855099
233	0xbdc40a17	-0.09572237
234	0xbdc46135	-0.09588853
235	0xbf13d8e7	-0.5775284
236	0x3d4ce25e	0.050020568
237	0xbcc24cb4	-0.023718216
238	0x3dc27ce8	0.0949648
239	0xbeb2bc33	-0.3490921
240	0x3ca2ff4f	0.019897131
241	0x3d81bf6b	0.06335338
242	0x3df07a20	0.117420435
243	0x3cac8c5e	0.021063026
244	0xbd568c9b	-0.052380186
245	0xbcc35fe8	-0.023849443
246	0x3d32e9c3	0.043679964
247	0xbd97b7aa	-0.07408078
248	0x3f0814dc	0.5315683
249	0x3e4a5b62	0.19761422
250	0x3e9e0b71	0.30868104
251	0x3d23f38b	0.040027183
252	0x3d479245	0.048723478
253	0xbc766e10	-0.015040889
254	0xbd2321cc	-0.039827153
255	0x3ce385e8	0.027773812

fc1.bias f4 [400]
0	0xbda8af20	-0.082365274
1	0x3d1aa57d	0.03775548
2	0xbdd21ea7	-0.10259753
3	0xbdeb77a3	-0.11497428
4	0xbe1604d2	-0.14650276
5	0x3dab42eb	0.08362373
6	0xbd33027d	-0.043703545
7	0x3cf1e650	0.029528767
8	0x3cd5ff8e	0.026122835
9	0x3d87cfdf	0.06631445
10	0xbe10b9f9	-0.14133443
11	0xbd975c31	-0.07390631
12	0xbcd97945	-0.026547084
13	0x3d8438c6	0.06456141
14	0xbdb2ac58	-0.08724278
15	0x3e1daca0	0.15397882
16	0xbe132540	-0.14369678
17	0x3dc97c10	0.09838116
18	0x3c3babb0	0.011454508
19	0xbb914bfd	-0.0044341073
20	0x3e18ed7d	0.14934345
21	0xbcd35647	-0.025797976
22	0xbccd3981	-0.025051834
23	0xbe6699e4	-0.22519642
24	0x3e1c72fa	0.15278235
25	0xbda2eba8	-0.07955104
26	0x3e4ad570	0.19807982
27	0x3c9281c7	0.017884148
28	0x3b8993d2	0.0041985298
29	0xbcabf389	-0.02099015
30	0x3e2634a9	0.16231026
31	0xbd3b7c36	-0.045772754
32	0x3e86902b	0.26281866
33	0xbdf45cfb	-0.11931797
34	0x3e3d8c72	0.18510607
35	0xbcd371b9	-0.025811063
36	0x3e362e7a	0.17791167
37	0xbe3a861e	-0.18215224
38	0x3ddb72a0	0.10715222
39	0x3e4699aa	0.19394556
40	0x3d799348	0.060931474
41	0x3d5a6ecb	0.053328317
42	0xbdd5423c	-0.10413024
43	0xb63e577e	-2.8363133e-06
44	0xbdfdb174	-0.12387362
45	0x3e0a5477	0.13508783
46	0x3e6a1e52	0.22863129
47	0x3ddab250	0.10678542
48	0xbdbb96ce	-0.09159623
49	0x3b1c2760	0.002382718
50	0x3d9ba08d	0.07598982
51	0xbe03d56e	-0.12874386
52	0x3d98db9c	0.07463762
53	0x3cce020d	0.025147462
54	0xba4f9e9a	-0.0007920057
55	0x3e7531dd	0.23944803
56	0xbe660a77	-0.2246493
57	0xbd5da5b4	-0.054113105
58	0x3d9fd296	0.07803838
59	0x3df875a8	0.12131816
60	0x3da91b10	0.08257115
61	0x3d49f47d	0.049305428
62	0x3cee998e	0.029125955
63	0xbd98167b	-0.07426163
64	0x3cd8a0b2	0.026443813
65	0xbe7b299a	-0.24527588
66	0xbdc86b02	-0.09786035
67	0x3d3b0088	0.045654804
68	0xbe2e62aa	-0.17029825
69	0xbd74494d	-0.059640218
70	0x3d40b8ef	0.047051366
71	0xbd9f50f2	-0.07779111
72	0xbd6b6efd	-0.057478894
73	0x3ca7345d	0.020410711
74	0x3d3eb673	0.046560716
75	0x3dde2e99	0.108487315
76	0x3cfe4627	0.03103931
77	0x3d182dd9	0.0371531
78	0x3e21275e	0.15737674
79	0xbdd03dd6	-0.10168044
80	0xbd8f7e57	-0.07006519
81	0x3d8ab1b0	0.067721725
82	0x3dfd2435	0.123604216
83	0xbd20f2b2	-0.039293952
84	0xbdc70f6d	-0.09719739
85	0xbd899a36	-0.067188665
86	0xbd8de843	-0.06929066
87	0xbdc38d64	-0.095484525
88	0x3da18c8e	0.07888137
89	0xbe971349	-0.295069
90	0x3d66c2e0	0.05633819
91	0xbdf283c0	-0.118415356
92	0xbd10450c	-0.0352221
93	0xbe8e62de	-0.27809805
94	0x3d1b1aa1	0.037867192
95	0x3d4bd70a	0.049765624
96	0x3e4766ae	0.19472763
97	0x3d153526	0.03642764
98	0xbe9f0db8	-0.31065154
99	0x3dfe6c88	0.124230444
100	0x3dcd4169	0.100222416
101	0xbd0b766a	-0.034048475
102	0xbb57df9d	-0.003293968
103	0xbc20d31e	-0.009815959
104	0xbd05c732	-0.03266067
105	0x3dbf7f4e	0.09350453
106	0x3d0b5a23	0.034021508
107	0xbd852e27	-0.065029435
108	0xbe398bd3	-0.18119745
109	0x3e3661bf	0.17810725
110	0xbdbd6683	-0.09248068
111	0x3d15ca3b	0.036569815
112	0x3cbc2fae	0.022971954
113	0x3e08d132	0.13361052
114	0x3e5be062	0.21472314
115	0xbe30c712	-0.1726344
116	0x3c879ce5	0.016554305
117	0x3eac7b1a	0.3368767
118	0xbe736b02	-0.23771289
119	0x3e61ef7f	0.22064017
120	0xbdf00c90	-0.11721146
121	0x3d8ee199	0.06976623
122	0x3da426ad	0.08015189
123	0xbdc15588	-0.09440142
124	0xbdaf7240	-0.08566713
125	0xbde4a941	-0.11165095
126	0xbe096d72	-0.13420656
127	0x3df322a5	0.11871842
128	0x3e3246c6	0.1740981
129	0xbcc375ec	-0.02385994
130	0x3e338fc3	0.1753531
131	0xbc42d3fb	-0.01189136
132	0xbdc36f2b	-0.09542688
133	0x3e2188f9	0.15774907
134	0x3d367a8f	0.044550475
135	0x3dd72529	0.105051346
136	0x3d977699	0.073956676
137	0xbe46688d	-0.1937582
138	0xbdb9031b	-0.090337954
139	0x3c689e99	0.014197969
140	0x3cb559aa	0.022137482
141	0x3e493449	0.19648851
142	0x3e348ce5	0.17631872
143	0x3e3ef289	0.18647207
144	0xbd9bf791	-0.07615579
145	0x3e52350c	0.20528048
146	0x3ccc4706	0.02493621
147	0x3e45bcf1	0.19310357
148	0x3de9a463	0.114083074
149	0x3d965179	0.073397584
150	0xbdf59447	-0.11991172
151	0xbbac367b	-0.005255518
152	0xbd7993df	-0.060932036
153	0x3c6f74d4	0.014615256
154	0x3e0b60eb	0.1361119
155	0x3e2dcdd9	0.16973056
156	0x3d87c553	0.066294335
157	0xbe08977a	-0.13339034
158	0x3d1b131c	0.03786002
159	0xbdbd9eb1	-0.092587836
160	0xbe026628	-0.12734282
161	0xbdc262fb	-0.09491535
162	0x3d5fe4bf	0.05466151
163	0x3b7062aa	0.0036679902
164	0x3e1641f3	0.14673595
165	0xbce6715f	-0.028130231
166	0x3e097c1b	0.13426249
167	0x3d968033	0.07348671
168	0x3df7267b	0.120678864
169	0x3d51f124	0.05125536
170	0xbe36a32d	-0.17835684
171	0xbe6bbbfd	-0.2302093
172	0x3d93d1ac	0.07217726
173	0xbceccee2	-0.028907243
174	0x3e30372a	0.17208543
175	0xbde83802	-0.11338808
176	0x3d94bcdc	0.072625846
177	0xbe2e76e8	-0.17037547
178	0x3e0c87ef	0.1372373
179	0xbe10cd3f	-0.14140795
180	0xbdc864b7	-0.09784835
181	0xbc97b240	-0.018517613
182	0xbdabf77d	-0.08396814
183	0xbce1f2bb	-0.027581563
184	0xbdd3f4ca	-0.10349424
185	0xbdc640fd	-0.09680364
186	0x3e4f6612	0.2025378
187	0xbd55dcc1	-0.05221248
188	0x3dd66842	0.10469104
189	0xbc8a6c23	-0.016897267
190	0xbe451bd5	-0.19248898
191	0x3e006f09	0.12542357
192	0x3d2b92b1	0.041887943
193	0x3e4383dd	0.1909327
194	0x3e1a64a3	0.15077452
195	0x3e3d8089	0.18506064
196	0x3cf74b5e	0.030187305
197	0xbd8d18a7	-0.06889468
198	0x3dfcffad	0.12353454
199	0xbd28be56	-0.041197143
200	0x3e07ad52	0.1324971
201	0xbd710ad7	-0.05884823
202	0x3e38b3f4	0.18037397
203	0x3dc75f83	0.09735014
204	0x3cf5f8f7	0.030025942
205	0xbd692518	-0.05692014
206	0x3e19cea4	0.15020233
207	0x3e14139a	0.14460602
208	0xbdc311ee	-0.09524904
209	0x3caf5458	0.021402523
210	0xbe2989aa	-0.16556421
211	0x3df0ef5f	0.117644064
212	0xbd3d7706	-0.046256088
213	0xbd595b74	-0.053065732
214	0xbd921cc5	-0.071343936
215	0xbd8917c6	-0.066939875
216	0x3e03a85a	0.1285719
217	0xbc6982a3	-0.014252338
218	0xbe021282	-0.12702373
219	0x3d4ab7a0	0.049491525
220	0x3e514505	0.20436485
221	0x3d543ee8	0.051817805
222	0x3e0583bc	0.13038534
223	0xbe2cfa5d	-0.16892381
224	0x3e114553	0.14186601
225	0xbad2ce92	-0.0016083291
226	0x3e5b5bcf	0.21421741
227	0x3dc5c324	0.09656361
228	0xbe3f16e4	-0.18661076
229	0x3d6521bc	0.055940375
230	0xbcd55efe	-0.026046272
231	0x3d6b42e5	0.057436842
232	0x3d440c6e	0.047863416
233	0xbe3f6da2	-0.18694165
234	0xbdd93337	-0.106054716
235	0xbda2dab2	-0.07951869
236	0x3e21c95c	0.15799469
237	0xbd5fd413	-0.05464561
238	0x3e35746e	0.17720196
239	0x3e25dc55	0.16197331
240	0x3d24f307	0.04027083
241	0xbcf7803b	-0.030212512
242	0x3e3d98c5	0.18515308
243	0xbd1f775f	-0.0389322
244	0xbd8a92f3	-0.067663096
245	0xbd8c740e	-0.06858073
246	0xbe45d83e	-0.19320771
247	0xbe0c53e2	-0.13703874
248	0x3e1bb95c	0.15207428
249	0x3cd92395	0.026506225
250	0xbcecc616	-0.028903048
251	0xb9ec9a46	-0.0004512837
252	0xbe005d67	-0.1253563
253	0x3da64cd3	0.08120122
254	0x3ddff51e	0.10935424
255	0x3e069a0d	0.13144703

fc2.weight f4 [300, 400]
0	0xbc8cd112	-0.017189536
1	0xbb4cbf84	-0.0031242082
2	0x3d40059d	0.046880353
3	0xbd6f59a4	-0.058435097
4	0x3da8e86d	0.08247457
5	0x3df0975e	0.11747621
6	0xbe10dbc9	-0.14146341
7	0xbe38218a	-0.17981544
8	0xbe094d1e	-0.13408324
9	0xbe2a240b	-0.16615312
10	0xbe9e82b7	-0.30959103
11	0x3d0dcc5e	0.034618728
12	0xbd7699b5	-0.06020518
13	0xbd92d962	-0.07170369
14	0x3e79a978	0.24381053
15	0x3e6cd4a0	0.23127985
16	0xbe10fb3f	-0.14158343
17	0x3e3f6aa4	0.18693024
18	0x3c9f0504	0.019411571
19	0x3c8bf6a1	0.017085375
20	0xbe0dd9ef	-0.13852666
21	0xbd61c1a4	-0.05511631
22	0x3c945666	0.018107604
23	0xbeccc2bf	-0.3999233
24	0xbb8cde42	-0.004298956
25	0x3c007e8d	0.007842672
26	0x3e0844f4	0.13307554
27	0x3e21a2ea	0.15784803
28	0x3d056c63	0.03257407
29	0x3cd6d267	0.026223375
30	0x3d8d3e8c	0.068966955
31	0xbdd35001	-0.10317994
32	0x3d50c13c	0.050965533
33	0xbd8754f2	-0.06607999
34	0x3eb3316f	0.34998652
35	0x3e0d8b30	0.13822627
36	0xbd537aaf	-0.051630672
37	0xbdcc387e	-0.099717125
38	0x3e00bbbd	0.12571616
39	0xbd589f3b	-0.05288623
40	0x3e0f575b	0.13998167
41	0x3d2f8257	0.04284891
42	0x3d8945c5	0.067027606
43	0xbe4f8e88	-0.20269215
44	0x3d7f3ff9	0.06231687
45	0xbd0398ae	-0.03212803
46	0x3cd89623	0.026438778
47	0x3d87eccc	0.06636962
48	0x3c9984e1	0.01874012
49	0xbb8d37e7	-0.0043096426
50	0x3ac0c755	0.0014707843
51	0x3d0cb236	0.034349643
52	0x3e0f0ff8	0.13970935
53	0x3ab6eb63	0.0013955649
54	0x3ced4e3b	0.028967967
55	0x3daecb40	0.085348606
56	0x3db4827a	0.08813949
57	0x3dcae258	0.09906453
58	0x3daad4c2	0.083413616
59	0x3ddcd7af	0.10783326
60	0x3e398928	0.18118727
61	0x3c103447	0.008801526
62	0x3dfe7541	0.12424708
63	0xbe80f7ff	-0.25189206
64	0x3d3db731	0.046317283
65	0xbe86d663	-0.2633544
66	0xbe88243b	-0.26590142
67	0x3ba2b16d	0.0049649985
68	0x3d5c790a	0.05382637
69	0x3dc44d65	0.09585074
70	0xbca61638	-0.020274267
71	0x3d170f94	0.03688009
72	0x3dfd11c0	0.12356901
73	0x3e14382f	0.14474557
74	0x3d96e5d6	0.073680565
75	0x3d8b5e9c	0.06805155
76	0x3da9a23b	0.08282896
77	0x3c77f40a	0.015133867
78	0x3b8432a4	0.004034357
79	0x3c6b1e47	0.01435048
80	0xbe539bf3	-0.20664959
81	0x3e237fea	0.15966764
82	0x3cd0cd13	0.025488412
83	0x3d1d7862	0.038444884
84	0x3dc72e5e	0.09725641
85	0xbde8f453	-0.11374726
86	0xbb06c395	-0.0020563353
87	0xbe2b74d1	-0.1674378
88	0x3dde6280	0.10858631
89	0x3ec624b3	0.38699874
90	0x3d7fd1d1	0.062455956
91	0xbe85e4b3	-0.26151046
92	0xbcabe417	-0.020982785
93	0x3de30a7b	0.11085983
94	0xb9d6aefd	-0.00040947637
95	0xbd5f363c	-0.05449508
96	0x3ddcd44f	0.10782682
97	0x3e15c67c	0.14626497
98	0xbf0d19f5	-0.5511773
99	0xbd78dc17	-0.06075677
100	0xbe6d5f33	-0.23180847
101	0x3e418cae	0.18901321
102	0x3e011d1c	0.1260876
103	0x3d1727c9	0.036903176
104	0x3d040cb6	0.032238685
105	0xbdda31a8	-0.106540024
106	0x3dbdfb84	0.092764884
107	0xbdde6ced	-0.1086062
108	0x3d3937f7	0.045219388
109	0x3d6532a5	0.0559565
110	0x3d84db8b	0.06487187
111	0x3e36d29d	0.1785378
112	0x3d596a82	0.05308009
113	0x3d38804c	0.04504423
114	0x3cbe3033	0.023216343
115	0x3edbc9c1	0.42927364
116	0x3d7fb4dc	0.06242834
117	0xbe89d199	-0.26917723
118	0xbd9d5993	-0.076831006
119	0x3e37e353	0.17957811
120	0xbe1ea81b	-0.15493815
121	0x3cb0e7af	0.02159485
122	0x3dfbf4a1	0.12302519
123	0x3d125ba7	0.035731938
124	0x3de01b8b	0.109427534
125	0xbe62c4e1	-0.22145416
126	0xbbed45e6	-0.0072409986
127	0x3d316f74	0.04331918
128	0xbe74833e	-0.2387819
129	0xbde85cb9	-0.113458104
130	0x3e2a7355	0.16645558
131	0x3e5a2df0	0.21306586
132	0x3d04c46d	0.03241389
133	0x3d104ee3	0.035231482
134	0x3d8cede9	0.06881315
135	0xbdd8b2de	-0.10580991
136	0x3c06d3bc	0.008229192
137	0xbe451b43	-0.19248681
138	0xbcc189f8	-0.023625359
139	0xbd147915	-0.036248285
140	0x3e112b4d	0.14176674
141	0x3d78338c	0.060596034
142	0x3df9256f	0.12165343
143	0xbdc9eb72	-0.09859361
144	0x3d834967	0.06410485
145	0x3d37ca8f	0.04487091
146	0xbcedb1e9	-0.029015498
147	0x3deb7dee	0.114986286
148	0x3a12a55e	0.00055940996
149	0x3d698b66	0.057017706
150	0xbc8f4878	-0.01749061
151	0xbd14532d	-0.036212135
152	0xbc76c403	-0.015061381
153	0x3dd6a158	0.10479993
154	0x3c095263	0.008381459
155	0x3d865d6c	0.065607876
156	0x3d17b4b3	0.037037563
157	0x3aaab0a9	0.001302262
158	0x3dc9bf44	0.09850934
159	0x3c0050d5	0.007831772
160	0x3c9b2f21	0.018943371
161	0xbb965320	-0.004587546
162	0xbd8cbae7	-0.06871586
163	0x3d96e027	0.073669724
164	0x3e2a7a86	0.16648301
165	0x3dbc0527	0.0918067
166	0xbe8812bd	-0.26576796
167	0xbc7900e2	-0.015197964
168	0x3cac7fcb	0.02105703
169	0x3df213f0	0.11820209
170	0xbd37b8cf	-0.04485398
171	0xbc67996b	-0.014135699
172	0xbcef02c9	-0.029176133
173	0x3c834f1c	0.016028933
174	0xbe3dea55	-0.18546422
175	0xbc9535fc	-0.018214218
176	0x3d696e74	0.056990102
177	0xbe5943f3	-0.21217327
178	0xbd4f24e5	-0.050572295
179	0xbe8c347e	-0.27383798
180	0xbcf0408c	-0.029327653
181	0x3d36fbbc	0.044673666
182	0xbe3cc777	-0.18435465
183	0x3a812870	0.000985397
184	0x3dd923e7	0.10602551
185	0xbe2e8671	-0.17043473
186	0x3d8ec86a	0.0697182
187	0x3d31c40c	0.043399855
188	0x3d4fd25d	0.050737727
189	0xbdbae910	-0.091264844
190	0x3d983cad	0.07433448
191	0x3da09089	0.07840068
192	0x3e0459ab	0.1292483
193	0x3e134bc5	0.14384373
194	0x3d6451f5	0.055742223
195	0x3d02f474	0.03197141
196	0x3e6417ea	0.22274747
197	0x3cce53eb	0.0251865
198	0x3de3d1b3	0.11123981
199	0xbe8cf0a4	-0.27527344
200	0xbdbfd81e	-0.09367393
201	0xbd617197	-0.05503997
202	0xbe88eb22	-0.26741892
203	0xbdaf9744	-0.085737735
204	0xbe2d1a0d	-0.16904469
205	0xbd0369db	-0.032083374
206	0x3da2030c	0.079107374
207	0xbc2f7f3e	-0.010711489
208	0xbe1a5592	-0.15071705
209	0xbd767704	-0.060172096
210	0xbd9182a5	-0.071049966
211	0x3d215f89	0.03939775
212	0xbd8bc91f	-0.0682547
213	0x3e01b7cd	0.1266777
214	0xbd858ee8	-0.06521398
215	0x3bdb2b69	0.0066885245
216	0xbdfecc94	-0.12441364
217	0xbc66c86c	-0.01408587
218	0xbc27d29e	-0.010243086
219	0x3d6114dd	0.054951537
220	0x3d0b1cab	0.033962887
221	0x3cccfe17	0.025023503
222	0x3d319832	0.043358035
223	0x3d5f6674	0.054541066
224	0x3dc89a28	0.09795028
225	0xbe87cb94	-0.26522505
226	0x3da05bd3	0.07830014
227	0xbcc6ffd8	-0.024291918
228	0xbd849bd7	-0.064750366
229	0x3e098b2e	0.13431999
230	0xbb1981bd	-0.0023423277
231	0x3c500061	0.012695403
232	0x3d528878	0.051399678
233	0xbcd36e2d	-0.025809372
234	0xbd47499f	-0.048654195
235	0x3cdaed95	0.026724616
236	0x3e0d9980	0.13828087
237	0x3db74695	0.08949009
238	0x3de20ebc	0.110379666
239	0xbdb6d8c3	-0.08928063
240	0x3bc3e79a	0.005978537
241	0x3d8f482a	0.06996186
242	0xbd208457	-0.03918871
243	0x3b238fbb	0.0024957496
244	0x3ce734d4	0.028223433
245	0x3d923960	0.0713985
246	0xbee08b72	-0.43856388
247	0x3e0a94f5	0.13533385
248	0xbcc9f4cb	-0.02465286
249	0xbe1c8e37	-0.15288626
250	0xbd720f56	-0.059096657
251	0xbce16284	-0.027512796
252	0xbda7c017	-0.08190935
253	0x3c766f24	0.015041146
254	0xbeb4fec1	-0.35350612
255	0xbe1a8bc5	-0.1509238

fc2.bias f4 [300]
0	0x3d96b611	0.07358945
1	0xbcd4de9c	-0.025985055
2	0x3d1fe8c7	0.039040353
3	0x3d64b9ac	0.055841133
4	0xbcd326e8	-0.025775388
5	0x3d847f34	0.064695746
6	0xbc5175fd	-0.012784478
7	0x3cb55523	0.022135323
8	0xbd579147	-0.05262878
9	0xbcbabfe7	-0.022796584
10	0x3d97c56f	0.07410704
11	0xb94d41da	-0.00019574855
12	0x3c825c1e	0.015913066
13	0x3b451d36	0.0030077226
14	0xbc3bd025	-0.0114632
15	0x3d505ab3	0.050867748
16	0xbc8b2cbd	-0.016989106
17	0xbd557621	-0.05211461
18	0xbbe373ea	-0.0069413083
19	0x3abe1c5c	0.0014504301
20	0x3d128f79	0.035781357
21	0x3dc715d2	0.09720959
22	0xbc2385d6	-0.009980639
23	0xbcfda799	-0.030963706
24	0xbce2e27d	-0.027695889
25	0xbce5dc8e	-0.02805927
26	0x3dd9c73d	0.10633705
27	0x3c36cd1e	0.011157302
28	0x3cc23b0a	0.023709793
29	0x3cfbb1ad	0.03072437
30	0x3d60e8ca	0.054909505
31	0x3c3a3917	0.01136615
32	0x3c9d9bc6	0.019239318
33	0xbcae37bd	-0.021266812
34	0x3c885f46	0.016646992
35	0xbd1a5017	-0.037674036
36	0x3d46a0d0	0.048493207
37	0x3d0e40e6	0.03472986
38	0x3d6f382a	0.05840317
39	0xba46c27b	-0.00075820804
40	0x3d538317	0.05163869
41	0xbd3d5447	-0.04622295
42	0x3d4ac3ad	0.049503017
43	0x3d331100	0.043717384
44	0xbd94d9cb	-0.07268103
45	0xba95c02a	-0.0011425067
46	0x3d84ef12	0.064909115
47	0xbd4a41d4	-0.049379185
48	0xbc215f0b	-0.00984932
49	0x3d64e5d1	0.055883233
50	0x3d8d13fd	0.06888578
51	0xbd122bf6	-0.035686456
52	0xbd6f675e	-0.058448188
53	0xbaf1df55	-0.0018453399
54	0x3dcbe60a	0.09955986
55	0xbbde6a20	-0.0067875534
56	0x3cddb5a0	0.027064145
57	0x3cad7a4f	0.021176485
58	0x3d343414	0.043994978
59	0xbd67e5d5	-0.05661567
60	0x3d2b95f1	0.041891042
61	0x3d40622f	0.046968635
62	0xbd592b80	-0.05302
63	0xbd2810ef	-0.041031774
64	0x3ba181de	0.0049288115
65	0xbc51a292	-0.012795107
66	0x3cd31de8	0.025771096
67	0x3d4951e2	0.049150355
68	0xbd82f46b	-0.06394275
69	0x3d24ee29	0.04026619
70	0xbd330deb	-0.043714445
71	0x3d2de45b	0.042454105
72	0xbc9a26e0	-0.018817365
73	0x3d810093	0.06298938
74	0x3d4c236d	0.049838472
75	0x3dbb3b32	0.0914215
76	0x3c049f0b	0.008094559
77	0x3c9751a5	0.018471548
78	0x3b4c60ec	0.00311857
79	0x3b85ed46	0.004087123
80	0x3c058c66	0.008151149
81	0xbd38c2ba	-0.04510758
82	0x3cba9ad1	0.0227789
83	0xbac8a96e	-0.0015309283
84	0x3c9df061	0.01927966
85	0xbccdc55f	-0.025118528
86	0xbc34fbc0	-0.01104635
87	0x3b97c8aa	0.0046320753
88	0x3d82f00c	0.063934416
89	0x3d8a6f86	0.06759553
90	0x3d3a8483	0.04553653
91	0xbbbeedd3	-0.0058266907
92	0xbbf1deeb	-0.00738131
93	0x3b89de08	0.0042073764
94	0xbd5fec46	-0.054668687
95	0x3d100845	0.035164136
96	0x3c914553	0.017733252
97	0x3d316b44	0.043315187
98	0x399d7410	0.00030031847
99	0xbdc92f6e	-0.098234996
100	0x3bf44c5a	0.007455391
101	0xbb37967b	-0.0028013277
102	0xbc544350	-0.012955502
103	0x3ccb1a29	0.024792748
104	0xbd5ed328	-0.054400593
105	0xbd3343cc	-0.043765828
106	0x3bb4338d	0.0054993094
107	0x3ce05fe1	0.027389469
108	0x3d2d00e1	0.042237166
109	0x3c874fb8	0.016517505
110	0xba7cadb3	-0.00096389203
111	0x3cfc093f	0.030766128
112	0xbbfe92e7	-0.007768977
113	0x3d2bb3d9	0.041919563
114	0x3d1db03d	0.038498152
115	0x3b7e04ec	0.0038760258
116	0x3c13dabd	0.009024319
117	0x3c81563d	0.015788192
118	0xbc34b4e0	-0.011029452
119	0xba8b6ade	-0.0010636707
120	0x3d1d6a0c	0.038431212
121	0xbc4df0be	-0.012569604
122	0x3cf5b717	0.02999453
123	0xbd88fd44	-0.066889316
124	0x3c61a9b9	0.013773375
125	0x3d278de6	0.04090681
126	0x3d0cc298	0.034365267
127	0x3ca8ee5f	0.020621477
128	0xbce51c41	-0.027967574
129	0x3cf96d80	0.030447721
130	0x3d575f9e	0.052581422
131	0x3d8a47cd	0.06751976
132	0xbccaf641	-0.024775626
133	0x3cb47450	0.022028118
134	0x3d913a8f	0.07091247
135	0x3985ebda	0.0002554346
136	0xbca9dd23	-0.020735329
137	0x3bbfbb67	0.0058511975
138	0xbc791ac4	-0.015204135
139	0xbce19c60	-0.027540386
140	0x3d78431a	0.060610868
141	0xbccf93ec	-0.02533909
142	0xbcbb140e	-0.022836711
143	0xbccea310	-0.025224239
144	0x3cbf6d95	0.023367682
145	0xbd0a4b2b	-0.033763092
146	0x3c581fa8	0.013191141
147	0xbc2938f8	-0.010328524
148	0x3d906562	0.07050587
149	0x3bdc90b8	0.006731119
150	0xbcb49fd7	-0.022048874
151	0xbd84998d	-0.064746
152	0x3d4736ba	0.048636176
153	0x3d4fb10a	0.050705947
154	0xbb707be4	-0.0036694938
155	0x3c53b988	0.012922652
156	0xbda3b8be	-0.07994221
157	0xbd0c77f3	-0.03429408
158	0x3d1e1336	0.03859254
159	0x3c1c1724	0.0095270015
160	0x3cdc7cb2	0.026914928
161	0x3d4f840a	0.05066303
162	0xbdc564e5	-0.09638385
163	0xbafd27ef	-0.0019314269
164	0xbb9d186d	-0.0047941715
165	0x3d2a8f01	0.041640285
166	0x3d24485e	0.040108077
167	0x3cb59546	0.022165906
168	0x3c176746	0.009240931
169	0xbcce0103	-0.025146967
170	0x3cdc8ea0	0.026923478
171	0x3d139858	0.03603396
172	0x3d27b880	0.040947437
173	0x3d6180ca	0.055054463
174	0x3daa3741	0.0831132
175	0x3d3521b3	0.04422159
176	0xbd5690d6	-0.05238422
177	0xbc5097da	-0.012731517
178	0xbda107dd	-0.07862828
179	0x3bf8c5aa	0.007591923
180	0x3d9298d0	0.07158053
181	0xbcf3571a	-0.02970462
182	0x3c20188c	0.009771477
183	0xbbc3f666	-0.0059803007
184	0x3ca9fee8	0.020751432
185	0xbceaaad0	-0.028645903
186	0xbd0ecdfb	-0.034864407
187	0x3ce21a56	0.027600449
188	0x3cde1ceb	0.027113399
189	0x3d0b0b21	0.03394616
190	0x3d6d0a79	0.057871316
191	0x3b9a50bc	0.0047093313
192	0x3cd62701	0.026141645
193	0xbd34c310	-0.04413134
194	0x3d6f0f36	0.058364116
195	0xbbcf2a3a	-0.0063221725
196	0x3d48cf69	0.049025927
197	0x3c2fd335	0.010731508
198	0x3b4282b8	0.0029679965
199	0xbc42357b	-0.011853571
200	0xbd0458aa	-0.03231112
201	0xbd8c6770	-0.06855667
202	0x3d76db6f	0.060267862
203	0xbb98102f	-0.004640601
204	0x3d8b2259	0.06793661
205	0xbd17b2a1	-0.03703559
206	0x3d2d9147	0.042374875
207	0xbd5ff993	-0.054681372
208	0xbceb0dbb	-0.02869307
209	0xbd2a7b97	-0.04162177
210	0x3d1b17e4	0.03786458
211	0x3d714dad	0.058911968
212	0x3c18a8ea	0.009317616
213	0x3b9e28ca	0.00482664
214	0xbdcbc8b7	-0.09950393
215	0xbc6d5820	-0.014486343
216	0xbb977f85	-0.004623356
217	0x3d8e4281	0.06946278
218	0xbb7cd092	-0.0038576466
219	0x3d8c2f2c	0.06844935
220	0xbb2c47d6	-0.0026287935
221	0x3cebe167	0.028794004
222	0xbca01c47	-0.019544734
223	0xbd1949a4	-0.037423745
224	0x3da0a5ba	0.0784411
225	0xbc81c1e3	-0.015839523
226	0x3c772e0f	0.015086665
227	0x3d3d958e	0.046285205
228	0x3be12157	0.0068704295
229	0x3d876734	0.06611481
230	0x3d8a5d61	0.06756092
231	0x3d162504	0.036656395
232	0x3c815673	0.015788293
233	0x3d4192f7	0.047259297
234	0xbd44dfed	-0.048065115
235	0x3cbf4b1e	0.023351248
236	0x3d67addd	0.056562293
237	0x3c7e238c	0.015511405
238	0x3ccedfa4	0.025253125
239	0xbc0cd06e	-0.008594615
240	0x3d8305e9	0.06397612
241	0x3d3cbff2	0.04608149
242	0xbd6b1c97	-0.057400312
243	0x3d922616	0.071361706
244	0xbd893155	-0.066988625
245	0xbd29f412	-0.04149253
246	0xbc0c79c6	-0.008573955
247	0xbd3701b4	-0.04467936
248	0x3d476d89	0.048688445
249	0x3d5eaffa	0.054367043
250	0xbd47b687	-0.048758056
251	0xbbe87193	-0.007093617
252	0x3d57bd37	0.052670684
253	0x3d24159f	0.040059682
254	0xbcbb83dc	-0.022890024
255	0x3d41c93c	0.047311053

fc3.weight f4 [4, 300]
0	0x3e8de853	0.27716312
1	0xbec1e241	-0.3786793
2	0xbc8cf7a6	-0.017207932
3	0x3dff143c	0.12455031
4	0xbee38187	-0.4443476
5	0x3d3ab079	0.045578454
6	0xbf84ab1b	-1.0364717
7	0xbc287e6d	-0.0102840485
8	0xbe240754	-0.1601842
9	0x3cba823b	0.022767177
10	0x3e76ce43	0.2410212
11	0x3eec3f3d	0.46141997
12	0xbeff8013	-0.499024
13	0x3cee13cb	0.029062172
14	0xbf4855d9	-0.78255993
15	0xbe35da0b	-0.17758958
16	0xbfba3f8b	-1.4550642
17	0xbf3c8082	-0.7363359
18	0x3c966af0	0.018361539
19	0x3f06e115	0.526872
20	0xbe62af53	-0.22137193
21	0x3e5508ed	0.20804186
22	0xbc48b84c	-0.012250971
23	0x3ed32a9c	0.41243446
24	0xbe385a84	-0.18003279
25	0x3dacc8c7	0.08436733
26	0x3e35d2b8	0.17756164
27	0x3ebf8f69	0.374141
28	0x3eef0753	0.46685275
29	0x3defd154	0.11709848
30	0x3ef1d403	0.47232065
31	0xbf5fe8b1	-0.87464434
32	0x3e74893f	0.2388048
33	0x3e4b7ec1	0.19872572
34	0x3e35c2be	0.1775007
35	0xbf18db8e	-0.59710014
36	0x3dd96eed	0.106168605
37	0x3ec72605	0.38896194
38	0x3e694e1c	0.22783703
39	0x3e178491	0.14796664
40	0xbdfc50e9	-0.1232012
41	0x3ef6f7b0	0.48235846
42	0x3e9dca12	0.3081823
43	0x3dd2cb25	0.10292653
44	0x3ea3780c	0.31927526
45	0x3c5a5eeb	0.013328294
46	0x3eeff9af	0.4687018
47	0xbf36c5d6	-0.71395624
48	0xbc8d6bb8	-0.017263278
49	0x3eabd935	0.33564153
50	0xbdb2e539	-0.08735127
51	0xbe978fff	-0.29602048
52	0x3e1fd3bb	0.15608113
53	0x3ebf480a	0.3735965
54	0x3c5693f1	0.013096795
55	0xbf202797	-0.6256041
56	0x3e427f5d	0.18993898
57	0x3d15ccc7	0.036572244
58	0xbed05089	-0.40686443
59	0xbe94651b	-0.28983387
60	0x3e478490	0.19484162
61	0x3d99345c	0.0748069
62	0xbc24d39f	-0.01006022
63	0x3c6181b2	0.013763832
64	0x3ed4341d	0.4144601
65	0xbe86101b	-0.26184162
66	0x3de8f289	0.11374385
67	0xbeaceb79	-0.337734
68	0xbe7abb04	-0.24485403
69	0x3d764162	0.060120948
70	0x3f1d500b	0.6145026
71	0xbed39886	-0.41327304
72	0x3f3b74e2	0.73225224
73	0x3ea6674e	0.3250069
74	0x3e5e0e5f	0.2168517
75	0xbf002b8f	-0.50066465
76	0xbf1ffd1b	-0.62495583
77	0xbdea547c	-0.11441895
78	0x3e177d16	0.1479381
79	0x3d8aab0a	0.06770904
80	0x3c751bb6	0.01496022
81	0x3df3581f	0.11882042
82	0xbec8af36	-0.39196175
83	0xbf023d79	-0.5087505
84	0xbe0c349c	-0.13691944
85	0x3ed4c6a7	0.4155781
86	0xbd4ce6fb	-0.050024968
87	0x3e2bb4fc	0.16768259
88	0x3e5b5f7d	0.21423145
89	0x3f2621b7	0.64895195
90	0x3ee55dbd	0.4479808
91	0xbeec8cf8	-0.462013
92	0x3dd6270e	0.10456668
93	0xbee6e4fc	-0.45096576
94	0xbe3a1c70	-0.1817491
95	0xbe8bcf3f	-0.27306554
96	0xbec0dc9f	-0.3766832
97	0xbebb847b	-0.36624512
98	0x3f06b381	0.5261765
99	0x3d27b150	0.040940583
100	0xbe30c1d2	-0.17261437
101	0xbeab6583	-0.33475885
102	0xbf258dfe	-0.6466979
103	0x3cfb4bf8	0.030675873
104	0x3c5950d0	0.013263896
105	0x3d875c79	0.06609435
106	0xbcbb2e91	-0.022849353
107	0x3d6f06cc	0.05835609
108	0x3d85c18e	0.06531058
109	0x3e91b03e	0.28454775
110	0x3e8ed89c	0.27899635
111	0x3eaf1e8e	0.34203
112	0x3e87653c	0.26444423
113	0x3ce119b6	0.02747808
114	0xbba83085	-0.005132737
115	0x3ecabe45	0.3959829
116	0xbeaab5c8	-0.33341813
117	0x3e045ca0	0.12925959
118	0x3e1ac9ba	0.15116015
119	0x3d58a3e2	0.052890666
120	0xbe900712	-0.28130394
121	0xba818499	-0.0009881436
122	0xbeefd3f8	-0.46841407
123	0x3e82cb21	0.255456
124	0x3f2839da	0.65713274
125	0x3ea01253	0.3126398
126	0x3e5bd4b6	0.21467862
127	0x3d9655d8	0.07340592
128	0xbf719ed3	-0.9438297
129	0x3f2bf1a3	0.67165583
130	0x3ec23e18	0.37938
131	0xbf2f9452	-0.68585694
132	0xbe2919e9	-0.1651379
133	0xbcc82042	-0.024429444
134	0xbdb433c1	-0.08798934
135	0xbe41d05e	-0.18927142
136	0xbebfb9e9	-0.37446526
137	0xbe4c6f18	-0.19964254
138	0x3e29be8a	0.16576591
139	0x3dbfdb54	0.093680054
140	0x3e3be436	0.18348774
141	0xbc3ca4bb	-0.011513884
142	0x3e95fe14	0.2929541
143	0x3dbaff7a	0.091307595
144	0x3f690927	0.9102959
145	0x3d8ea5a5	0.06965188
146	0x3ea03bb1	0.3129554
147	0xbe82582c	-0.25457895
148	0x3a62c277	0.00086501933
149	0xbfa2db39	-1.2723151
150	0xbf569634	-0.8382294
151	0x3e058cce	0.13041994
152	0x3d05e57a	0.03268955
153	0x3ee48a8a	0.44636947
154	0x3b968547	0.0045935246
155	0xbf22794e	-0.63466346
156	0xbe374452	-0.17897156
157	0x3ea615ba	0.3243845
158	0x3e3b81c9	0.18311228
159	0xbe94961d	-0.29020777
160	0x3c389236	0.011265328
161	0x3dfee839	0.12446637
162	0xbf9ffe76	-1.249953
163	0x3cbb43b9	0.022859441
164	0xbf5d0354	-0.86333203
165	0xbf2393e0	-0.63897514
166	0xbe03abbc	-0.1285848
167	0x3e8d42f4	0.27590144
168	0xbec46e1e	-0.38365263
169	0x3f07f5ca	0.5310942
170	0x3d887bec	0.06664261
171	0xbcbc24d7	-0.022966785
172	0x3e4b403e	0.19848725
173	0x3e871039	0.26379564
174	0xbe5cd013	-0.21563749
175	0x3de0e2ec	0.10980782
176	0x3e1ac485	0.15114029
177	0xbe6ab88b	-0.2292196
178	0xbef804b4	-0.48441088
179	0xbea1c1ce	-0.31593174
180	0x3d0ca189	0.03433374
181	0xbd7fe1f6	-0.062471353
182	0x3be04257	0.006843846
183	0x3e174e66	0.14776
184	0x3eebfcef	0.4609141
185	0xbec52463	-0.38504323
186	0xbf217b31	-0.630786
187	0xbc9568ca	-0.018238444
188	0x3d4731e6	0.04863157
189	0xbe772666	-0.24135742
190	0xbecdd864	-0.40204155
191	0x3f87f3bb	1.0621256
192	0x3f3c882f	0.736453
193	0x3ed87088	0.42273355
194	0xbf2d73b4	-0.67754674
195	0xbe849129	-0.25891998
196	0x3e83a6b8	0.25713134
197	0xbf223dd4	-0.6337559
198	0xbe44f1ea	-0.19232908
199	0x3da53724	0.08067158
200	0xbec2a98d	-0.38019982
201	0xbec73aaf	-0.3891196
202	0x3f01d687	0.5071797
203	0xbf46a16d	-0.77590066
204	0x3e9e69aa	0.3093999
205	0xbc40f239	-0.0117765
206	0x3e35d763	0.17757945
207	0xbee404c7	-0.44534895
208	0x3db17847	0.08665519
209	0x3e2c4c9a	0.16826096
210	0x3f1e4189	0.6181875
211	0x3d7de95d	0.06199013
212	0x3c9d675b	0.019214323
213	0xbe3c9a32	-0.18418196
214	0x3f2139d3	0.6297886
215	0x3ebdb549	0.37052372
216	0xbd8340d1	-0.06408847
217	0xbf64be10	-0.8935251
218	0x3de95e56	0.11394946
219	0x3e1444ae	0.14479324
220	0xbe9c95d8	-0.30583072
221	0x3b99c221	0.0046923314
222	0x3ea27efb	0.31737503
223	0xbea1a21e	-0.31568998
224	0xbedb1af5	-0.42794004
225	0xbf380f54	-0.7189839
226	0x3daa27e1	0.083083875
227	0xbe2f672f	-0.17129205
228	0x3f71f894	0.94519925
229	0x3e325776	0.17416176
230	0xbe9fa72f	-0.31182238
231	0xbf11cf3a	-0.5695683
232	0x3e21185c	0.15731949
233	0xbe46616a	-0.19373098
234	0x3f393aec	0.7235553
235	0xbf07d802	-0.53063977
236	0x3e198f35	0.14996035
237	0x3ccc13b7	0.024911745
238	0xbcd98c0b	-0.026556036
239	0x3f407115	0.7517255
240	0x3cbf1c82	0.023329023
241	0xbf5fee0d	-0.8747261
242	0xbe066ad8	-0.13126695
243	0x3e828eb9	0.25499514
244	0x3ea6ee97	0.32603905
245	0xbef3f41e	-0.47647184
246	0x3e353a15	0.17697938
247	0xbd1fe704	-0.039038673
248	0x3ecf3fa4	0.4047824
249	0x3c2ac199	0.010422134
250	0xbe87113f	-0.26380345
251	0xbee5f3fe	-0.44912714
252	0x3d2ec2de	0.04266631
253	0x3d16dce8	0.036831766
254	0x3c023cbf	0.007949053
255	0xbedbebb2	-0.4295326

fc3.bias f4 [4]
0	0x3a5627bd	0.00081693736
1	0xbd8bb089	-0.06820781
2	0x3d2b6ecd	0.041853715
3	0x3d1162ee	0.035494737
