continuouscontrol/checkpoint_critic_final.pth (torch_old, 542610 bytes, 5 tensors)

fcs1.weight f4 [400, 33]
-0.3867638 0.029934322 -0.030359654 0.35861284 -1.5307982 0.3499271 -0.04339421 0.13345414
-0.125257 -0.08158073 0.06844826 0.038296014 -0.004816518 0.8296952 0.02772154 -0.011157946
-1.77818 0.85850555 0.11638227 0.020987136 -0.04410115 0.15378204 -0.021166595 0.030860504
-0.055589773 -0.05863186 -0.2075741 0.69511926 0.12709475 -0.043697722 -0.71084183 -0.004893236
-1.1350377 -0.11735867 -0.5839301 0.25597593 -0.9166057 -0.95543396 2.5006733 -0.16125622
-0.45118913 -0.4566326 -0.18918611 0.05329677 -0.07166408 -0.017038178 0.3123027 0.25175083
-0.03362377 0.108925916 0.9731074 -1.2967892 -0.6025006 -0.07562686 -0.039322596 -0.011733034
-0.0692797 0.06693914 0.039515197 -0.08070543 0.47010443 -0.10824507 -0.04326896 -0.47705474
-0.02944212 -1.7507356 0.57620496 -0.28800553 -0.26399088 -0.33835834 -0.5361991 0.46535593
-1.0020553 -0.034661703 -0.04100313 -0.67193276 0.1895459 0.006414589 -0.1594711 -0.7533113
0.41070804 0.011697595 -0.7452223 0.48957443 -0.92451805 1.85548 -0.100379884 -0.14639388
-0.0618168 0.01763692 0.14720817 0.004619104 0.3201971 0.52453905 0.1662653 -0.039870124
-0.60613906 0.011735398 0.513608 -0.47870332 -0.40793073 0.4049979 0.24774912 1.2224597
0.5808532 -1.3422613 -0.032764412 0.31895804 0.43122655 -0.11786249 -0.24016938 0.07165918
0.008195903 0.014382677 0.15952061 -1.4500594 0.6651126 0.89674544 0.8851935 -0.010709448
0.09885057 -0.07395548 -0.01672937 -0.0147203915 0.12318607 0.19702235 1.0849526 0.08417485
-0.0114538 -1.1332958 -0.013513543 1.5604706 0.070544094 0.27225298 -0.39803258 0.22198218
0.94437134 -0.03599712 -0.018924775 0.051489446 1.0318111 -0.08401396 -0.084923126 0.01815771
0.01095154 0.25428638 -0.22398481 0.6969923 -0.111159764 -0.44111156 1.0987209 -0.05335156
-0.017794123 -0.08712481 0.21877408 -0.19653986 0.21640019 -0.069477156 -0.23873185 1.4363059
-0.39632726 -0.012097567 -1.3785132 -0.030761613 0.8436732 -0.23564224 0.109229155 0.3167073
1.1754426 0.16479458 1.0878146 -0.7815381 0.20074324 0.3689767 -0.70342094 0.073430635
-0.028088082 0.07802936 0.28363276 -0.285249 -0.017591344 -1.5524153 1.1241435 -0.61988235
-2.170013 -0.038110822 0.03285442 0.029839857 -0.12223697 -0.023165302 -0.029921044 -0.023124943
1.0772104 -0.22514309 -0.013624795 -1.083899 0.0023422763 0.046587583 -0.122449815 0.18569009
0.3575888 1.0413923 -0.35724953 0.79585874 -0.81323606 0.06118342 0.079261154 0.2217166
-0.10367486 -0.01857261 -0.04699523 0.036169782 -0.021929048 -0.1341201 -0.09030651 -1.3125162
0.037053037 0.59188974 -0.032116637 0.09416812 0.15769722 0.048397657 0.01780664 -0.089221
0.1633827 0.79806155 -0.0018649902 0.016188059 -0.8406688 -0.033074275 3.5222661 0.22721979
0.5149213 -0.1973992 -0.25969666 -2.767822 -0.014900341 2.083515 0.07500825 0.19612452
-0.6726316 -0.022502927 0.19618185 0.09764266 -0.2750003 0.21943685 0.19114946 2.020997
0.46906307 0.22729373 -1.2969195 0.08158181 -0.08259486 -0.03876755 -0.025757264 0.2646258
00000000: e805 c6be d338 f53c cfb4 f8bc 1a9c b73e
00000010: 32f1 c3bf a529 b33e 21be 31bd 34a8 083e
00000020: 5f43 00be cc13 a7bd 9a2e 8c3d 48dc 1c3d
00000030: e2d3 9dbb e866 543f 4818 e33c d1cf 36bc
00000040: 679b e3bf 05c7 5b3f d459 ee3d 37ed ab3c
00000050: 68a3 34bd 0a79 1d3e 9165 adbc 2bcf fc3c
00000060: 1ab2 63bd f627 70bd 4e8e 54be 56f3 313f
00000070: 2025 023e 62fc 32bd bbf9 35bf 7057 a0bb
00000080: ea48 91bf be59 f0bd 717c 15bf 470f 833e
00000090: aca6 6abf 5297 74bf 080b 2040 5a20 25be
000000a0: 4302 e7be c0cb e9be 01ba 41be b74d 5a3d
000000b0: 9ec4 92bd a693 8bbc 24e6 9f3e 7ce5 803e
000000c0: 14b9 09bd 8d14 df3d 911d 793f 30fd a5bf
000000d0: 7b3d 1abf 41e2 9abd bb10 21bd e93b 40bc
000000e0: 84e2 8dbd 6317 893d b0da 213d e348 a5bd
000000f0: 87b1 f03e 97af ddbd cb3a 31bd 8540 f4be
00000100: 9a30 f1bc 1b18 e0bf 2b82 133f 7675 93be
00000110: d029 87be 4e3d adbe 5844 09bf 2243 ee3e
00000120: 5943 80bf 6ef9 0dbd e6f2 27bd c903 2cbf
00000130: 5218 423e 7931 d23b 644c 23be 02d9 40bf
00000140: 5348 d23e 45a7 3f3c e3c6 3ebf 80a9 fa3e
00000150: 37ad 6cbf 5e80 ed3f f893 cdbd 47e8 15be
00000160: 9d33 7dbd 4d7b 903c bdbd 163e da5b 973b
00000170: e0f0 a33e 3148 063f 7341 2a3e db4e 23bd
00000180: ee2b 1bbf d445 403c d07b 033f 9a18 f5be
00000190: 4cdc d0be e25b cf3e f2b1 7d3e 8f79 9c3f
000001a0: ccb2 143f 38cf abbf fa33 06bd 784e a33e
000001b0: bac9 dc3e e461 f1bd f6ee 75be 0cc2 923d
000001c0: 1c48 063c 52a5 6b3c 5f59 233e 8c9b b9bf
000001d0: d244 2a3f 1c91 653f 0b9c 623f ae76 2fbc
000001e0: 2b72 ca3d f875 97bd 080c 89bc cc2d 71bc
000001f0: fa48 fc3d 3ac0 493e badf 8a3f dd63 ac3d
00000200: b8a8 3bbc d60f 91bf e867 5dbc 80bd c73f
00000210: 6c79 903d be64 8b3e edca cbbe 4c4f 633e
00000220: 52c2 713f b771 13bd 2108 9bbc 99e6 523d
00000230: 6312 843f 830f acbd 2dec adbd 7abf 943c
00000240: 176e 333c d331 823e 465c 65be 166e 323f
00000250: bba7 e3bd 60d9 e1be e3a2 8c3f 2a87 5abd
00000260: fbc4 91bc 7e6e b2bd 5006 603e bf41 49be
00000270: 0398 5d3e 0a4a 8ebd 1f76 74be dfd8 b73f
00000280: 68eb cabe e034 46bc 1f73 b0bf c7ff fbbc
00000290: f8fa 573f 334c 71be 89b3 df3d 7627 a23e
000002a0: e774 963f e9bf 283e 823d 8b3f e212 48bf
000002b0: a38f 4d3e 84ea bc3e 6513 34bf cd62 963d
000002c0: fa18 e6bc dbcd 9f3d 5038 913e 280c 92be
000002d0: b91b 90bc 8bb5 c6bf efe3 8f3f 9cb0 1ebf
000002e0: 7ee1 0ac0 181a 1cbd 5b92 063d b772 f43c
000002f0: 6057 fabd 29c5 bdbc fa1c f5bc 8570 bdbc
00000300: 08e2 893f e98b 66be 883a 5fbc 34bd 8abf
00000310: e080 193b 9fd2 3e3d f8c6 fabd 8b25 3e3e
00000320: e115 b73e 584c 853f 69e9 b6be 66bd 4b3f
00000330: 3d30 50bf 779b 7a3d ac53 a23d ad09 633e
00000340: 7c53 d4bd 9625 98bc 127e 40bd c426 143d
00000350: 8ca4 b3bc c856 09be 9ff2 b8bd 8800 a8bf
00000360: edc4 173d 1686 173f bc8c 03bd 37db c03d
00000370: 617b 213e 9f3c 463d 3bdf 913c 80b9 b6bd
00000380: cb4d 273e c34d 4c3f b072 f4ba d29c 843c
00000390: 1236 57bf e478 07bd cf6c 6140 4eac 683e
000003a0: e2d1 033f 0423 4abe f6f6 84be ff23 31c0
000003b0: 8f20 74bc 4f58 0540 ed9d 993d ded4 483e
000003c0: 9631 2cbf 0f58 b8bc e5e3 483e e0f8 c73d
000003d0: d7cc 8cbe 0eb4 603e afbc 433e 0458 0140
000003e0: 0929 f03e b0bf 683e 7501 a6bf 5d14 a73d
000003f0: 7e27 a9bd b9ca 1ebd e600 d3bc 087d 873e

fcs1.bias f4 [400]
-0.8696564 -0.2975352 -0.7006024 -1.2361382 -1.521061 -1.0429424 -0.7600811 -0.40352255
-0.37415054 -0.74312484 -0.17214513 -0.37261805 -0.86778665 -1.0725961 -0.5148849 -0.7979692
-1.1925336 -0.5258329 -0.81086797 -1.008977 -0.86503845 -0.84827006 -1.2862244 -0.78349084
-0.81764513 -0.67247236 -0.90973985 -0.2342005 -1.2707746 -1.2197864 -0.35615188 -1.0184867
-0.77131605 -0.60717 -0.7875119 -0.79772675 -0.87445885 -1.8340955 -0.22329666 -0.62648594
-0.61967444 -0.7065687 -1.0393703 0.3000147 -0.9299929 -0.853544 -0.2946551 -0.5869448
-1.1672902 -0.63857543 -0.41920608 -0.9885296 -0.5611215 -0.5199579 -0.5164999 -0.091158345
-1.2511817 -1.0353569 -1.0779009 -0.99698466 -0.6905587 -0.76347595 -0.5935992 -0.9380074
0.56587535 -0.56862503 -0.46437266 -0.756477 -0.9821459 -1.0829431 -0.7311231 -0.62855065
-1.0834179 -0.7071116 -0.97569877 -0.5936517 -1.0379875 -0.2998318 -0.7006954 -0.61382794
-0.66957957 -0.7436225 -0.91042733 -0.88643533 -1.2697934 -1.0171918 -0.5598187 -1.1542335
-0.80867445 -1.3259978 -0.9755879 -0.4217631 -0.41290563 -0.3437739 -0.5326242 -0.820362
-0.6462485 -0.644599 -0.90505236 -0.83067787 -1.056356 -0.3184101 -1.0766705 -0.3819429
-1.3140365 -0.99603873 -1.4036114 -0.44734487 -0.65676683 -0.9816181 -0.9153306 -0.6684344
-0.27028325 -0.6136212 -0.49026123 -1.0218776 -1.3100299 -0.5647421 -0.62982416 -1.3662782
-1.0650967 -0.39810383 -0.49872768 -1.1586988 -1.0470198 -0.89643264 -1.0379584 -0.79340017
-0.38634992 -1.2349973 -0.8928401 -0.89816934 -1.0213321 -0.8152099 -0.5704434 -0.77445513
-0.5970141 -1.3893989 -1.2231143 -0.7906361 -1.2135524 -0.62438726 -0.72780585 -1.2022145
-0.8113995 -1.0827196 -0.4721571 -0.9191859 -0.4890832 -0.334651 -1.4664172 -1.277021
-0.91394585 -1.1881027 -0.77458465 -0.5564121 -1.0884026 -0.9339966 -0.8481892 -0.837475
-0.98100895 -1.4627972 -0.95835704 -0.32279524 -0.27645326 -0.611462 -0.36731806 -1.2350067
-0.8446784 -1.1245282 -0.5760348 -1.0431095 -0.71390676 -0.923903 -0.5594738 -0.78340906
-0.59613585 -1.1323737 -0.6228521 -0.5344708 -0.95348537 -0.71326965 -0.8238449 -1.0508862
-0.70117635 -0.49139303 -0.5624501 -1.1497178 -0.62783736 -0.75492376 -0.9945579 -0.5908078
-1.0941573 -0.43675482 -0.52571917 -1.2330763 -1.5123465 -1.0133749 -0.69387275 -0.7382983
-0.47125703 -0.94954777 -0.6656015 -0.8842891 -0.74629045 -0.58610725 -0.043009404 -0.38579446
-1.1686844 -0.8014479 -1.04093 -0.604261 -1.0123641 -0.81365716 -0.45030704 -0.80919
-1.2866998 -0.9746108 -0.7134222 -0.5640161 -0.38059977 -1.8705059 -0.48387545 -0.88636756
-1.1353287 -0.5599514 -0.58669245 -0.72772247 -0.40315652 -0.39242658 -0.9423625 -0.14817075
-0.3927121 -0.29877904 -0.48465496 -1.0036192 -0.6926612 -1.0076891 -0.89957184 -1.0149066
-0.6782751 -1.1553911 -0.61403227 -0.431933 -0.6585271 -0.8912972 -0.7250438 -1.091604
-0.15773088 -0.66682005 -0.67892045 -1.0837973 -0.29607734 -0.9473878 -0.8116499 -0.7167327
00000000: cda1 5ebf 8956 98be ae5a 33bf c739 9ebf
00000010: 20b2 c2bf 237f 85bf ad94 42bf 829a cebe
00000020: a990 bfbe 6e3d 3ebf d046 30be cbc7 bebe
00000030: 4427 5ebf d44a 89bf 7fcf 03bf b647 4cbf
00000040: f1a4 98bf fc9c 06bf 0b95 4fbf 2926 81bf
00000050: 2973 5dbf 3a28 59bf 00a3 a4bf db92 48bf
00000060: 3151 51bf 2627 2cbf b6e4 68bf 42d2 6fbe
00000070: bea8 a2bf f621 9cbf 8a59 b6be c65d 82bf
00000080: f874 45bf 7e6f 1bbf 619a 49bf d237 4cbf
00000090: 89dc 5fbf a4c3 eabf e1a7 64be 6261 20bf
000000a0: fca2 1ebf b0e1 34bf 160a 85bf 879b 993e
000000b0: 0414 6ebf dc81 5abf 09dd 96be 0442 16bf
000000c0: c469 95bf ae79 23bf 2ea2 d6be 4710 7dbf
000000d0: a9a5 0fbf f61b 05bf 5639 04bf 3ab1 babd
000000e0: b926 a0bf 9386 84bf a8f8 89bf 633a 7fbf
000000f0: 74c8 30bf 2973 43bf 1ef6 17bf 4121 70bf
00000100: 35dd 103f 6991 11bf 41c2 edbe 7aa8 41bf
00000110: ea6d 7bbf e19d 8abf e22a 3bbf b2e8 20bf
00000120: 70ad 8abf 4405 35bf 65c7 79bf 8ff9 17bf
00000130: c6dc 84bf 8e83 99be c660 33bf d423 1dbf
00000140: 9169 2bbf 0b5e 3ebf c411 69bf 6ded 62bf
00000150: 9788 a2bf 5733 82bf 4750 0fbf ecbd 93bf
00000160: 4a05 4fbf 4cba a9bf 21c0 79bf 55f1 d7be
00000170: 5e68 d3be 2203 b0be 0f5a 08bf 3e03 52bf
00000180: 8b70 25bf 7104 25bf 83b1 67bf 4ea7 54bf
00000190: ac36 87bf a606 a3be 57d0 89bf 058e c3be
000001a0: 5932 a8bf 65fc 7ebf 8aa9 b3bf 630a e5be
000001b0: df21 28bf 534b 7bbf 1b53 6abf 841e 2bbf
000001c0: 9162 8abe 4716 1dbf 8503 fbbe e3cc 82bf
000001d0: 0faf a7bf f092 10bf 283c 21bf 34e2 aebf
000001e0: 1755 88bf 44d4 cbbe 3c59 ffbe 3e50 94bf
000001f0: bf04 86bf 9c7c 65bf d2db 84bf 461c 4bbf
00000200: a8cf c5be 6414 9ebf 2b91 64bf 6dee 65bf
00000210: 03bb 82bf 99b1 50bf 9408 12bf b142 46bf
00000220: ebd5 18bf d3d7 b1bf 028f 9cbf 2167 4abf
00000230: af55 9bbf d8d7 1fbf 7c51 3abf 2ae2 99bf
00000240: e1b7 4fbf 8e96 8abf 93be f1be c44f 6bbf
00000250: 1d69 fabe 6057 abbe 8fb3 bbbf 6d75 a3bf
00000260: 5bf8 69bf c013 98bf 2e4b 46bf 0671 0ebf
00000270: c750 8bbf 671a 6fbf ed22 59bf c364 56bf
00000280: 6723 7bbf f03c bbbf e356 75bf 6b45 a5be
00000290: 488b 8dbe c688 1cbf 1d11 bcbe b314 9ebf
000002a0: d83c 58bf 8af0 8fbf 0477 13bf 9d84 85bf
000002b0: 98c2 36bf e884 6cbf ad39 0fbf 7f8d 48bf
000002c0: 5c9c 18bf 9ff1 90bf 3c73 1fbf 14d3 08bf
000002d0: 9e17 74bf d798 36bf 80e7 52bf 7083 86bf
000002e0: 4b80 33bf de97 fbbe bbfc 0fbf f429 93bf
000002f0: f3b9 20bf af42 41bf 599b 7ebf 2e3f 17bf
00000300: 590d 8cbf 549e dfbe 8895 06bf 72d5 9dbf
00000310: 9294 c1bf 45b6 81bf a5a1 31bf 1e01 3dbf
00000320: 9a48 f1be 9015 73bf dc64 2abf c560 62bf
00000330: e40c 3fbf 200b 16bf a12a 30bd da86 c5be
00000340: 7397 95bf b12b 4dbf 323d 85bf d9b0 1abf
00000350: 2695 81bf d64b 50bf a58e e6be 1327 4fbf
00000360: 94b2 a4bf 1880 79bf d6a2 36bf 5c63 10bf
00000370: f9dd c2be bd6c efbf 86be f7be fce8 62bf
00000380: 7352 91bf fa58 0fbf 7a31 16bf 054c 3abf
00000390: 886a cebe 23ec c8be ab3e 71bf 13ba 17be
000003a0: 8f11 c9be 91f9 98be b224 f8be 9876 80bf
000003b0: 3f52 31bf f5fb 80bf 574a 66bf 76e8 81bf
000003c0: 70a3 2dbf dbe3 93bf 3831 1dbf 5226 ddbe
000003d0: 3b95 28bf 0e2c 64bf 789c 39bf aeb9 8bbf
000003e0: 3484 21be b8b4 2abf bbcd 2dbf dfb9 8abf
000003f0: 7397 97be 0288 72bf 4ac8 4fbf cb7b 37bf

fc2.weight f4 [300, 404]
0.061152287 -0.09979486 0.7666852 -0.5084934 1.4487997 -1.2140871 0.49188244 -0.3141426
0.7056597 0.18353292 0.28644416 0.3112243 -0.06800054 0.24863133 -0.10450828 0.42243573
0.336276 0.17431645 0.6316648 -0.27463633 -0.4098972 -1.0449357 -0.8783933 0.5142325
0.6456554 0.16355391 -0.2144411 0.16173793 -1.6160524 0.5975367 -0.039720867 0.26151332
0.20081049 -1.1573043 0.31624708 -0.2758083 0.7126822 0.5840456 0.33599624 -0.13713592
0.44754192 -0.5293179 0.31667343 -0.08348328 -0.27464482 -0.42079422 0.16771401 -0.20587283
-0.1078495 -0.17506796 0.3267061 0.23893803 -0.4697942 -0.8709174 0.07129315 0.3433953
-0.30437565 0.5635065 -0.4134967 -0.57362527 -0.63632023 -0.4511421 0.15058392 0.9216828
0.17450577 -0.33501628 -0.45776853 -0.49323553 0.44979537 -0.059624534 0.66700226 0.14739756
-0.6356359 0.058339097 -0.22674999 0.12732065 -0.63862777 0.44950032 -0.7619634 -0.17894939
0.48512417 -0.14263242 -0.7768296 0.40017954 0.58744633 -0.84098285 -0.7871937 0.73335594
-3.382733 0.10175839 0.09498602 -0.5854475 -0.38623264 0.31596845 -0.41618654 -0.7036163
0.41156027 -0.24784288 0.39310247 -0.04337196 -0.21835867 -0.45761117 -0.28350922 -0.4035602
0.26342168 -0.49052516 -0.010602498 -0.51689446 -0.39886996 0.7294881 -2.485859 -0.60763717
0.19041897 0.21224853 0.7669314 -0.5589769 0.81021494 -1.4421364 -0.5785985 -1.5491307
-0.4337945 -1.9505093 0.78300434 0.30515102 -1.6515241 -0.12303773 -0.23877153 -0.25940776
0.018978247 0.47648272 0.6228961 0.3871463 -0.06327786 0.25030094 -0.3123675 0.32602885
0.2998154 -0.10259793 0.35938156 -0.009919913 0.13356397 -2.0006566 -0.19901906 -0.86280656
0.57697767 -0.40696678 0.029722735 0.08291025 -0.97050935 -0.6154223 -0.9549956 -0.104941405
-1.1808976 0.082699746 0.83706135 -0.32340774 -0.8617613 -0.62086606 -1.2278793 0.10398669
-1.4107541 0.33250165 0.6493262 -0.21331309 -0.01616856 0.16695653 -1.3772616 -0.93598694
0.17155954 -0.2640678 -0.68264997 -0.98458153 -0.34798005 0.122143954 0.4197373 -0.0051539904
-0.01358331 0.2197312 -0.05245334 0.37276864 -0.11710337 0.44946378 0.21795814 -0.63784266
-0.5518756 -0.09751504 -0.04107342 0.37713826 -1.2515891 -0.2141993 -0.41855985 -0.150893
-1.3785312 -0.17562337 -0.115720965 -0.226507 -1.0971057 1.2669386 0.17013764 0.23963295
-1.865872 0.2729459 -1.2042096 0.532662 -0.06367083 0.2151742 -0.27967742 0.346247
-1.5114421 -1.3408166 0.12786433 -0.29154792 0.023916347 -0.26831317 -0.28853163 0.3245754
-0.19251455 -0.25135595 -0.22892112 -0.8140859 -0.110675514 -0.7150941 -0.3600931 0.2154457
0.677232 -0.4172821 -0.8868348 0.14493802 0.11680728 -0.11457021 -0.12181515 0.2753749
-0.3166946 0.08180711 -0.10143354 0.042327933 -0.50976074 -0.58966225 -0.36224797 -0.47901472
0.3096314 0.3925767 0.49205735 -0.20793818 0.19797254 -0.7135652 -0.68474406 0.042131834
0.642392 -0.39119357 -0.25680912 -0.6075327 -0.65507907 0.015959967 0.060637373 0.109708026
00000000: d27a 7a3d 3f61 ccbd 7b45 443f a02c 02bf
00000010: 4572 b93f 3567 9bbf 04d8 fb3e 4dd7 a0be
00000020: 1da6 343f 0ef0 3b3e cfa8 923e cb58 9f3e
00000030: de43 8bbd 3699 7e3e 7008 d6bd 7f49 d83e
00000040: 5e2c ac3e 0380 323e c9b4 213f 229d 8cbe
00000050: 0cde d1be 74c0 85bf 62de 60bf bea4 033f
00000060: ac49 253f ad7a 273e 7396 5bbe a19e 253e
00000070: ceda cebf 2af8 183f 59b2 22bd 13e5 853e
00000080: 44a1 4d3e 8c22 94bf 23eb a13e bf36 8dbe
00000090: 5772 363f 0384 153f b307 ac3e 5c6d 0cbe
000000a0: 3724 e53e 6181 07bf 0523 a23e 48f9 aabd
000000b0: 3f9e 8cbe 5772 d7be 39bd 2b3e 54d0 52be
000000c0: 33e0 dcbd 0445 33be 0646 a73e 2cac 743e
000000d0: de88 f0be 71f4 5ebf 2502 923d 82d1 af3e
000000e0: 20d7 9bbe f641 103f d7b5 d3be 1bd9 12bf
000000f0: e2e5 22bf 19fc e6be ac32 1a3e 67f3 6b3f
00000100: a4b1 323e 4187 abbe a360 eabe 5e89 fcbe
00000110: 944b e63e db38 74bd a9c0 2a3f 63ef 163e
00000120: 09b9 22bf faf4 6e3d 2631 68be 5860 023e
00000130: 1c7d 23bf e824 e63e 0910 43bf 823e 37be
00000140: 3262 f83e 3c0e 12be 4ede 46bf 55e4 cc3e
00000150: e262 163f a74a 57bf 8785 49bf 37bd 3b3f
00000160: b37e 58c0 b466 d03d 0888 c23d e3df 15bf
00000170: 49c0 c5be 9ec6 a13e 6716 d5be 3320 34bf
00000180: 07b8 d23e 86ca 7dbe ba44 c93e cca6 31bd
00000190: 6a99 5fbe 034c eabe 1f28 91be 719f cebe
000001a0: 35df 863e 1d26 fbbe 1ab6 2dbc 3253 04bf
000001b0: af38 ccbe bbbf 3a3f 5018 1fc0 1c8e 1bbf
000001c0: 31fd 423e ae57 593e 9e55 443f 1c19 0fbf
000001d0: 3f6a 4f3f ed97 b8bf 081f 14bf ea49 c6bf
000001e0: 501a debe 4aaa f9bf f972 483f c13c 9c3e
000001f0: 2465 d3bf 35fb fbbd 8680 74be 18d1 84be
00000200: 4578 9b3c 8bf5 f33e 1e76 1f3f 0a38 c63e
00000210: d397 81bd 7227 803e a2ee 9fbe 41ed a63e
00000220: 6781 993e dd1e d2bd dc00 b83e 2187 22bc
00000230: fec4 083e c20a 00c0 a7cb 4bbe e4e0 5cbf
00000240: cfb4 133f f35d d0be 187d f33c d9cc a93d
00000250: 4d73 78bf 518c 1dbf 977a 74bf 85eb d6bd
00000260: a727 97bf 7c5e a93d a749 563f b395 a5be
00000270: 639c 5cbf 14f1 1ebf 262b 9dbf f9f6 d43d
00000280: 9793 b4bf a83d aa3e 3e3a 263f bf6e 5abe
00000290: ee73 84bc a7f6 2a3e 1c4a b0bf d79c 6fbf
000002a0: 4ead 2f3e e533 87be 26c2 2ebf 890d 7cbf
000002b0: 712a b2be 9c26 fa3d cfe7 d63e cee2 a8bb
000002c0: 888c 5ebc 3701 613e 50d9 56bd 88db be3e
000002d0: e4d3 efbd 1e20 e63e 6b30 5f3e a849 23bf
000002e0: b847 0dbf f7b5 c7bd 9a3c 28bd 4418 c13e
000002f0: 1234 a0bf 1057 5bbe 7a4d d6be b283 1abe
00000300: b673 b0bf 9dd6 33be 1dff ecbd 73f1 67be
00000310: f66d 8cbf 0b2b a23f 9038 2e3e 5762 753e
00000320: e5d4 eebf 91bf 8b3e 8a23 9abf 895c 083f
00000330: da65 82bd a056 5c3e e131 8fbe 4947 b13e
00000340: ef76 c1bf e19f abbf deee 023e c545 95be
00000350: 37ec c33c 5860 89be 6bba 93be bf2e a63e
00000360: 8922 45be bab1 80be 4c6a 6abe ef67 50bf
00000370: d8a9 e2bd 6810 37bf 1f5e b8be cc9d 5c3e
00000380: 145f 2d3f 00a6 d5be 9b07 63bf a26a 143e
00000390: a838 ef3d c9a3 eabd 397a f9bd f0fd 8c3e
000003a0: cb25 a2be 7c8a a73d 63bc cfbd 0e60 2d3d
000003b0: ae7f 02bf 1bf4 16bf 9178 b9be 6b41 f5be
000003c0: 0288 9e3e d0ff c83e f1ee fb3e bfed 54be
000003d0: 50b9 4a3e 35ac 36bf 634b 2fbf 6e92 2c3d
000003e0: cd73 243f 864a c8be 7c7c 83be 4387 1bbf
000003f0: 43b3 27bf 7abe 823c e55e 783d 9aae e03d

fc2.bias f4 [300]
-0.8510029 -0.025205303 -0.11760433 0.652111 0.7774801 -0.4462792 0.063281395 -0.07817344
-2.1065023 -0.087933935 0.34379095 1.4903662 -1.182644 -0.10915931 0.42383254 -0.10594575
1.5757816 -0.049076393 -0.50058943 -0.10887311 1.6727366 -0.6269546 -0.7534433 -0.036080286
-0.3875594 -0.39452857 0.77315223 1.6185532 -0.6046559 -0.49980605 0.44608107 -1.4084736
-0.098327756 -0.07240986 -1.096698 -0.67359483 -0.085317895 -0.26153558 -0.06056692 -0.123416625
-0.042821385 0.115145534 -0.3810226 -0.5266269 -0.08348357 -0.08188433 -0.26865295 -0.77270186
-0.76638216 -0.04058759 0.45037243 -0.016807351 -0.25398487 0.8846608 -0.08030745 -0.088185504
-0.109227374 0.6790283 -0.07413013 -0.062353622 -0.2981405 2.2262359 1.6387391 0.67964727
2.0152812 -0.8682467 0.6169107 -0.04494632 -1.071268 0.71397465 -0.19973417 -0.43965033
-0.07044669 0.6872373 1.3139548 -0.11923971 -0.059376486 -0.48576346 -0.060482483 0.8851192
-0.09908342 -0.13486598 0.57448137 1.2126842 -0.9159175 -0.06618892 0.38178456 -0.678725
0.3863328 -0.036644276 -0.12590489 -0.5822891 0.6157234 -0.04689957 -0.092562206 0.56246585
0.5780965 -0.91520727 -0.09274268 -0.4035691 0.48174992 -0.35404876 -0.09295394 0.19060889
-0.08302159 -0.008935693 -0.7488717 -0.07527656 0.85012245 -0.8081397 1.6106122 -0.31823146
-0.09030531 -0.56966436 0.1622633 -0.7688958 0.11555094 -0.20839058 -0.11168508 -0.031379316
-0.06202751 0.61119765 2.0742257 -0.07487723 1.0167701 -0.052996065 0.49599963 -0.04607325
-0.05777742 -0.30262166 0.847327 -0.114850804 -0.11063213 0.4440794 -0.08544444 -0.91703576
-0.536199 -0.028328307 0.21074088 0.7674095 0.66214573 -0.11763445 0.34089738 0.59513044
0.11653007 0.42538285 0.76076716 -0.014545826 0.94132715 0.33247864 -0.13438421 -0.0058921757
-0.658786 -0.1462023 0.1878841 -0.10999183 -0.10101765 -0.037874743 0.8712281 -0.12305242
-0.06244842 0.14001769 0.23034611 -0.37351874 -0.03033652 -0.013045851 -0.049239926 0.88617194
0.5725701 -0.098404 0.42885867 -0.6248792 -0.54874 -1.2067447 -0.59199315 -0.09247399
-0.05178708 -0.5029397 -0.028305266 -0.04095998 -0.057202987 0.10156193 0.7376694 -0.013861466
-0.09233217 -0.092082314 -0.44431227 -0.9685228 -0.09541116 0.6893036 -0.062559135 -0.11014864
1.0928332 0.51809597 -0.89326763 -0.15446101 -0.6323227 0.09804618 1.777706 -0.4188468
-0.00915443 -0.27222916 -0.04506918 1.0415164 -0.07921916 -0.6990163 -0.4321358 0.05762145
-0.48217896 -0.113895796 -0.06895624 -0.07625515 -0.10087978 -0.8676368 -0.15599996 1.0242276
-0.09033812 -0.029150892 1.1230218 -0.07071107 -0.11500344 -0.2270373 -0.098866366 -0.62919044
-0.57399815 0.14853556 -0.61953384 -0.08732653 -0.07984979 0.8275193 -0.0482724 -0.4702917
-0.056973405 -0.6050513 -0.06234119 -0.08804204 1.2739052 -0.02842745 -0.68449086 -0.09190845
-0.24967754 0.9729223 -0.25717095 -0.08048006 0.2564294 -0.14778191 -0.0802322 0.8329116
-0.6344336 -0.8532112 -0.090715595 -0.09229156 0.24973167 0.1497922 -0.11870054 0.7839403
00000000: 53db 59bf 5a7b cebc 8ada f0bd bff0 263f
00000010: f008 473f b57e e4be ad99 813d 6619 a0bd
00000020: efd0 06c0 b516 b4bd 5e05 b03e 52c4 be3f
00000030: e160 97bf eb8e dfbd 9400 d93e 16fa d8bd
00000040: 36b3 c93f 5404 49bd a126 00bf ddf8 debd
00000050: 3c1c d63f 1980 20bf a9e1 40bf ecc8 13bd
00000060: 306e c6be a6ff c9be 4eed 453f c02c cf3f
00000070: bbca 1abf 94e6 ffbe bd64 e43e dd48 b4bf
00000080: 1060 c9bd 9f4b 94bd 9a60 8cbf b670 2cbf
00000090: 26bb aebd fee7 85be 0515 78bd dbc1 fcbd
000000a0: 7a65 2fbd 6cd1 eb3d 6515 c3be 05d1 06bf
000000b0: 6ff9 aabd f9b2 a7bd e18c 89be cacf 45bf
000000c0: 9f31 44bf 2c3f 26bd 3797 e63e 92af 89bc
000000d0: 4e0a 82be 2179 623f 3b78 a4bd 9a9a b4bd
000000e0: 9ab2 dfbd ccd4 2d3f 8ad1 97bd 8366 7fbd
000000f0: dfa5 98be a67a 0e40 34c2 d13f 5dfd 2d3f
00000100: 5efa 0040 6a45 5ebf dced 1d3f a219 38bd
00000110: 4f1f 89bf 0bc7 363f 1d87 4cbe d919 e1be
00000120: 5b46 90bd c9ee 2f3f ac2f a83f f333 f4bd
00000130: c234 73bd fdb5 f8be 7bbc 77bd 2c97 623f
00000140: 40ec cabd 4f1a 0abe 3611 133f 3c39 9b3f
00000150: 9279 6abf 0e8e 87bd 4479 c33e ecc0 2dbf
00000160: 6acd c53e 4f18 16bd 36ed 00be e610 15bf
00000170: 0ca0 1d3f c319 40bd 4191 bdbd c3fd 0f3f
00000180: 22fe 133f 064b 6abf e0ef bdbd 9ca0 cebe
00000190: eda7 f63e e145 b5be a35e bebd fa2e 433e
000001a0: 3907 aabd 0367 12bc 0eb6 3fbf 992a 9abd
000001b0: a0a1 593f 3ee2 4ebf 8a28 ce3f 3cef a2be
000001c0: fef1 b8bd 86d5 11bf 5a28 263e 5bd6 44bf
000001d0: f9a5 ec3d 5764 55be 26bb e4bd 9987 00bd
000001e0: 8f10 7ebd 7377 1c3f 1dc0 0440 3c59 99bd
000001f0: 8625 823f 6712 59bd aaf3 fd3e 4eb7 3cbd
00000200: 04a8 6cbd 3af1 9abe 6cea 583f e636 ebbd
00000210: 1993 e2bd 605e e33e 7ffd aebd dbc2 6abf
00000220: 5644 09bf c410 e8bc 75cc 573e f374 443f
00000230: 6282 293f 55ea f0bd 1a8a ae3e 785a 183f
00000240: 51a7 ee3d c8cb d93e a3c1 423f 9e51 6ebc
00000250: d1fa 703f a43a aa3e 049c 09be 2713 c1bb
00000260: 33a6 28bf 0eb6 15be b164 403e 6643 e1bd
00000270: 57e2 cebd 8c22 1bbd ce08 5f3f e802 fcbd
00000280: eac9 7fbd cc60 0f3e dadf 6b3e d93d bfbe
00000290: 4b84 f8bc 44be 55bc ceaf 49bd 2adc 623f
000002a0: f493 123f 0988 c9bd 5d93 db3e 15f8 1fbf
000002b0: 3a7a 0cbf 9c76 9abf dd8c 17bf 0163 bdbd
000002c0: b01e 54bd a8c0 00bf 72e0 e7bc a7c5 27bd
000002d0: ae4d 6abd b3ff cf3d e7d7 3c3f 341b 63bc
000002e0: a618 bdbd a795 bcbd e67c e3be 1cf1 77bf
000002f0: ed66 c3bd 3376 303f 011f 80bd 9c95 e1bd
00000300: f5e1 8b3f f0a1 043f 30ad 64bf 072b 1ebe
00000310: e7df 21bf 70cc c83d df8b e33f 1673 d6be
00000320: 76fc 15bc 9f61 8bbe 769a 38bd 6950 853f
00000330: a83d a2bd bbf2 32bf e740 ddbe 7804 6c3d
00000340: 29e0 f6be 3342 e9bd ee38 8dbd a92b 9cbd
00000350: 0f9a cebd 721d 5ebf 74be 1fbe e419 833f
00000360: 3103 b9bd dacd eebc 2ebf 8f3f f7d0 90bd
00000370: ec86 ebbd 777c 68be 737a cabd a012 21bf
00000380: 8bf1 12bf b519 183e c599 1ebf 40d8 b2bd
00000390: 4988 a3bd 4ed8 533f 48b9 45bd 13ca f0be
000003a0: f25c 69bd a4e4 1abf 7a59 7fbd 634f b4bd
000003b0: 530f a33f afe0 e8bc cb3a 2fbf 7f3a bcbd
000003c0: 78ab 7fbe 7011 793f e9ab 83be bbd2 a4bd
000003d0: b74a 833e 2454 17be c850 a4bd b239 553f
000003e0: 3e6a 22bf 0d6c 5abf 19c9 b9bd 5b03 bdbd
000003f0: a9b9 7f3e 2063 193e 4519 f3bd 50b0 483f

fc3.weight f4 [1, 300]
-0.065232374 0.021252641 -0.003043557 0.04207275 0.03875293 -0.04716151 0.047849588 0.013759931
-0.028854942 -0.025077267 0.039201867 0.043844152 -0.042921647 0.017737752 0.06010242 0.0094359405
0.054099314 0.017996468 -0.05618511 -0.026347019 0.042010963 -0.03824531 -0.051335804 -0.0028046072
-0.046403278 -0.07086071 0.044913236 0.043299973 -0.05603964 -0.081342414 0.048839837 -0.04610611
-0.030589033 -0.023494512 -0.050899364 -0.05691627 -0.011072335 -0.07737112 -0.02991851 0.00073122885
-0.10127091 0.061639868 -0.08278864 -0.057779703 -0.006014281 0.0061003966 -0.061341844 -0.07863031
-0.05357826 0.01374874 0.072258525 0.008441551 -0.112130634 0.039183844 -0.0064609884 -0.0025098594
-0.018767316 0.048814118 -0.00571181 0.036940828 -0.04606517 0.086944215 0.04884503 0.0519749
0.04521657 -0.06030841 0.05136184 0.021327287 -0.03986689 0.04336828 -0.047978178 -0.075751774
-0.019542601 0.03650144 0.04435618 -0.002396356 -0.017199915 -0.05911353 0.02243605 0.040421292
-0.013691503 -0.10691791 0.045476668 0.03151886 -0.04060922 -0.016226549 0.06332238 -0.037943806
0.03335204 0.072808474 0.01639309 -0.04027741 0.04574899 -0.07870241 0.010547875 0.067981444
0.033697013 -0.04912444 -0.00654926 -0.067059875 0.03339962 -0.07130652 -0.009981737 0.04909854
-0.012654605 0.03604973 -0.028825304 0.0061047478 0.037399128 -0.043347668 0.04044942 -0.1859993
0.007020289 -0.08008386 0.091081 -0.06303873 0.036136575 0.042947184 -0.008132019 0.0249849
0.010246395 0.039553944 0.091142856 0.008886949 0.036917023 0.017441707 0.038269527 0.008777618
0.011149651 -0.03460218 0.029736793 -0.009625389 0.002988374 0.044691715 -0.010642061 -0.035435084
-0.07878203 -0.022565829 0.047177996 0.044819105 0.041864596 0.008358576 0.062318463 0.04876423
0.05461728 0.026613658 0.04803177 -0.010204992 0.036924336 0.0668465 0.042608168 0.08885217
-0.0652924 0.051877715 0.044509973 -0.009143461 0.013585417 0.09284892 0.033966754 0.0011304006
-0.003610349 0.07491501 0.048415124 -0.09138123 -0.0015476967 -0.014617743 -0.00059367006 0.037404135
0.050117258 0.006045746 0.07222898 -0.085146874 -0.046311736 -0.04395193 -0.06383955 -0.0065014665
-0.010048442 -0.04549001 0.005034289 0.017573496 0.0022416275 0.10516641 0.05347112 0.0696547
-0.022064017 0.0026138872 -0.10301658 -0.049368143 0.0025028533 0.026530718 0.012426643 -0.010043558
0.042846635 0.08089227 -0.029369675 -0.0045697046 -0.05340453 0.06526568 0.037960846 -0.08031459
0.021786714 -0.086387925 0.022859978 0.041045945 0.11724533 -0.04527604 -0.052934542 0.041215397
-0.039919924 -0.0066826306 0.023299089 0.0030360469 0.012887808 -0.028760156 0.06614927 0.04017479
0.0018036778 -0.020053687 0.032216657 0.0010313932 0.0145636285 -0.057659045 -0.00054233614 -0.057329927
-0.050497923 0.04288437 -0.070042744 0.005053171 -0.0021199286 0.042675067 0.099749655 -0.050278824
0.012107401 -0.056999084 -0.005149697 0.017331589 0.038838178 -0.016171949 -0.04682757 0.014242248
-0.058626793 0.029395703 -0.060707826 -0.001282854 0.09770007 0.044102028 -0.017364344 0.044040557
-0.04549919 -0.06651969 -0.0007314811 -0.002656038 0.060290918 0.051453363 -0.025524896 0.032405958
00000000: 8d98 85bd 051a ae3c 6a76 47bb 7a54 2c3d
00000010: 64bb 1e3d 6d2c 41bd eefd 433d 5571 613c
00000020: 3361 ecbc d76e cdbc 2392 203d ed95 333d
00000030: 9cce 2fbd c34e 913c f52d 763d 3499 1a3c
00000040: 3e97 5d3d 546d 933c 5c22 66bd b4d5 d7bc
00000050: b013 2c3d 1da7 1cbd 7e45 52bd 80cd 37bb
00000060: 5d11 3ebd 6c1f 91bd f1f6 373d 505b 313d
00000070: d289 65bd da96 a6bd 480c 483d c3d9 3cbd
00000080: da95 fabc 9077 c0bc da7b 50bd 0921 69bd
00000090: bd68 35bc c074 9ebd aa17 f5bc f0af 3f3a
000000a0: 1f67 cfbd 167a 7c3d 178d a9bd 69aa 6cbd
000000b0: 7213 c5bb d6e5 c73b 9641 7bbd ee08 a1bd
000000c0: e174 5bbd 6542 613c 47fc 933d 6e4e 0a3c
000000d0: bfa4 e5bd 3d7f 203d b3b6 d3bb 747c 24bb
000000e0: eabd 99bc 50f1 473d 232a bbbb 444f 173d
000000f0: d5ae 3cbd cf0f b23d ba11 483d a2e3 543d
00000100: 0335 393d f405 77bd cb60 523d 90b6 ae3c
00000110: 774b 23bd f0a2 313d c484 44bd bf23 9bbd
00000120: ce17 a0bc 8982 153d d3ae 353d 2f0c 1dbb
00000130: d6e6 8cbc 0721 72bd cfcb b73c cc90 253d
00000140: 5352 60bc c7f7 dabd be45 3a3d ec19 013d
00000150: da55 26bd 8aed 84bc 2aaf 813d f76a 1bbd
00000160: 269c 083d 9c1c 953d cd4a 863c edf9 24bd
00000170: 4b63 3b3d bb2e a1bd ffd0 2c3c db39 8b3d
00000180: e105 0a3d b536 49bd 2d9b d6bb b056 89bd
00000190: 0ace 083d 2709 92bd 708a 23bc 8d1b 493d
000001a0: 4355 4fbc e2a8 133d 0b23 ecbc 560a c83b
000001b0: d42f 193d 538d 31bd 4bae 253d 9a76 3ebe
000001c0: 740a e63b 0203 a4bd ad88 ba3d 731a 81bd
000001d0: f203 143d 63e9 2f3d 293c 05bc 22ad cc3c
000001e0: 7fe0 273c 5103 223d 1ba9 ba3d 919a 113c
000001f0: 4e36 173d e9e1 8e3c 82c0 1c3d 00d0 0f3c
00000200: 07ad 363c 04bb 0dbd 939a f33c cfb3 1dbc
00000210: 99d8 433b a90e 373d 0a5c 2ebc 6124 11bd
00000220: 7958 a1bd f9db b8bc b73d 413d 3d94 373d
00000230: 367a 2b3d 69f2 083c a541 7f3d 00bd 473d
00000240: 5eb6 5f3d e304 da3c f6bc 443d d732 27bc
00000250: f93d 173d d1e6 883d e785 2e3d 20f8 b53d
00000260: 06b8 85bd ba7d 543d 1750 363d 74ce 15bc
00000270: 5e95 5e3c 9327 be3d b920 0b3d f329 943a
00000280: 9b9b 6cbb 0a6d 993d f04e 463d 1526 bbbd
00000290: 15dc caba 427f 6fbc 86a0 1bba 1435 193d
000002a0: c147 4d3d 651b c63b caec 933d 7c61 aebd
000002b0: 60b1 3dbd f006 34bd 4fbe 82bd 410a d5bb
000002c0: 38a2 24bc bc53 3abd adf6 a43b 4bf6 8f3c
000002d0: 45e8 123b 7d61 d73d 8804 5b3d 20a7 8e3d
000002e0: 99bf b4bc c04d 2b3b 5bfa d2bd 4036 4abd
000002f0: e906 243b f356 d93c 1e99 4b3c bc8d 24bc
00000300: f47f 2f3d d9aa a53d ac98 f0bc 76bd 95bb
00000310: b5be 5abd 03aa 853d d57c 1b3d fa7b a4bd
00000320: 0d7a b23c 27ec b0bd d944 bb3c cb1f 283d
00000330: 521e f03d 5e73 39bd e4d1 58bd 7ad1 283d
00000340: 1383 23bd f8f9 dabb bbdd be3c 6af8 463b
00000350: 6227 533c 6b9a ebbc 4579 873d 528e 243d
00000360: 6269 ec3a a147 a4bc 9df5 033d d02f 873a
00000370: 499c 6e3c e42b 6cbd 902b 0eba c9d2 6abd
00000380: e9d6 4ebd 85a7 2f3d 9272 8fbd 1295 a53b
00000390: 80ee 0abb 0dcc 2e3d 8c49 cc3d 2bf1 4dbd
000003a0: 1f5e 463c df77 69bd cabe a8bb fafa 8d3c
000003b0: c814 1f3d 097b 84bc 44ce 3fbd 5158 693c
000003c0: a622 70bd 42cf f03c c5a8 78bd 7025 a8ba
000003d0: f916 c83d 54a4 343d ab3f 8ebc df63 343d
000003e0: 5c5d 3abd 7a3b 88bd dec0 3fba ec10 2ebb
000003f0: 9cf3 763d c3c0 523d 9619 d1bc 1cbc 043d
